experiments/checkpoints/mlp_model_mnist.pth (torch, 546647 bytes, 6 tensors)

layer_1.weight f4 [784, 128]
00000000: 362d 21bc 33b4 9a3b e6fc 01bd 506b c3bc
00000010: 3e44 47bc dbb3 38bc fbb9 0abc a0e4 c8bc
00000020: e0f7 5dba 2bae 96bc f5e3 4fbc a08c d13c
00000030: 41be 4c3c 5ec4 2cbd d4f7 c43a 67e6 e03c
00000040: dbfd 0cbd 3c32 323b f7ff 953b 14e4 2ebb
00000050: 69b5 cdbc ca97 adbb 749f 88bc 7c41 943c
00000060: 0149 553c e2ff 9fbc 3b6d 15bb bc5b fdba
00000070: dc83 623c 7d76 4abc 7d2e a5bc d9d8 9d3b
00000080: b7d8 163c 8e96 61bc 8947 0ebd 6046 3ebc
00000090: 5773 aa3c b90f b23c 7681 acbc f496 5cbc
000000a0: 865d 9e3c 322b 173c f74f 353d 8640 303b
000000b0: fe62 503d c90e e33b 86e9 093a 0668 5cbc
000000c0: 69bb 4bbc b4db a73c d7f0 153c 53b0 85bb
000000d0: b4e9 8c3c 7b0b 693a 0e64 bb3c 2d8a bfb9
000000e0: c119 c1bb a403 d33a 5cac babc 5ee3 f33c
000000f0: 840a 2e3c 0969 c93c b62a 163c 334b e8bb
00000100: a5e9 483d b695 153d a4a5 de3c def3 8e3c
00000110: 4fac 79bb 0270 55bc 72b4 723b 2396 0abd
00000120: 61eb a7bb 8235 fbbc 66d0 fabc 00c4 9abb
00000130: dd72 573c 6bce 01bd 2103 683c 8cfa f2b9
00000140: 8ecb 283c bce8 46bd 60b6 b0bb f81b 89bc
00000150: 695f d43b b3ab 66bc 6675 08ba 7dc7 c3bc
00000160: 196f c3bc 2ede 5eba de9f 09bc 25b3 0dbd
00000170: 372d 883c 741e b1bb bd0a 89bc 7ef7 303b
00000180: f0d1 ba3c c6de b43c 54e1 9cbc fea9 c1bc
00000190: 1dbe 103c a7e3 883b f2f2 76bb 8240 3dba
000001a0: 25d3 0839 84b0 033b f679 08bd c6ff 7d3c
000001b0: 6a45 efbc bce5 dabc 80a3 993c 840c 9ebc
000001c0: e231 56bc 1c04 6ebb 2d35 c83c 6c9f e03c
000001d0: fdc8 a5bc fff1 833c 06c1 0c3d 63ea fbbc
000001e0: 02f0 bfbc 40b3 03bd 38f3 b2bc e049 b0ba
000001f0: 8f57 59bc 5072 c4bc 090b 77bc 1615 a43c
00000200: 4971 063d 2246 a33b 1096 babc a1c9 c7bc
00000210: fb3d 20ba 476a 5d3c 25c5 493c fba8 09bd
00000220: 477b b9bc 59b4 033c 57a2 09bd b461 223c
00000230: 4b00 cdbc c73f d6b9 562c 9439 8150 e1bc
00000240: d266 1e3c 408e 803a 21cd ad3c 618c d23b
00000250: 02e5 85bc 4136 53bc 7eab 86bc 19ec b8bb
00000260: 7388 51bb d26e 3dbc dedf 38bb 00fc fb3b
00000270: e6df 63bc 8776 91bc d3dc c73c e087 3b3c
00000280: 0ca0 a13c 40fe a33c 41e8 253d 5d29 c6bb
00000290: e6df fe3a 248c 37bc d3a0 913b f946 45bb
000002a0: b55a 7ebc 92d3 7b3c b747 4d3c 4fcd e43c
000002b0: f39b 00bd bdda 0f3b 8f61 b53b 1dda 48bc
000002c0: 6b3e e139 d5a1 8b3c 0b86 4fbc 4b33 ad3b
000002d0: fda3 3a3c 9dab 69bc fdc7 3cbb 1d81 bcbc
000002e0: 549c debb ea20 8b3b e28b 16bd 675b 0b3d
000002f0: 7a8d 03bd 8f61 adbc 7dfe bb3b f08d 36bc
00000300: 6d99 41bc 46f1 bd3c fd20 273b cadb 603c
00000310: 9516 63bb 33c2 5c3c 392a 8f3c 12b9 293c
00000320: 8653 353c 47f0 1b3c e4c2 05bd 95f6 d03b
00000330: 83d4 ffbb d9c9 cfbc 1cd9 533b 3605 1cbd
00000340: f746 0abc fdc0 1fbb a1ad 093c 285f 90bc
00000350: f8a7 433b bb69 9a3a 59d5 34bb 1727 33bc
00000360: c05e c23a 83db f8ba 467e 2ebd 1be9 063a
00000370: c642 473d 4582 3abb a974 643c 8965 01bd
00000380: 7b19 ff3c ae9c 0b3d 2a66 f4bc 62ec c0bc
00000390: 12f8 3cbc 815e 2c3c 55ef b73b 35d9 733c
000003a0: 1ef8 3b3c 20d0 a63c 264a 113d 1513 cabb
000003b0: 4160 d13c 4c29 70bc 7ebb 9e3c 5bb9 9b3c
000003c0: a15b c63c e271 003c ae75 8abc 0ee9 ae3c
000003d0: 4de5 2f3b bdab 4dbc 1f67 0f3b 0465 1eba
000003e0: 135b a6bc 8658 3d3b bdff c7bb 02df 75bc
000003f0: 934b 46bb b41f 5ebc 792b b9bc b5ad 433c
-0.009837439 0.0047211885 -0.031735323 -0.023854882 -0.012162266 -0.01127335 -0.008467193 -0.02452308
-0.0008467417 -0.018393597 -0.012688627 0.02557975 0.012496532 -0.042179458 0.0015027472 0.027453614
-0.034421783 0.0027190587 0.0045776325 -0.0026686238 -0.025110917 -0.0052976357 -0.016677596 0.018097632
0.013017894 -0.019531194 -0.0022800702 -0.0019329707 0.013825383 -0.012357351 -0.020163769 0.00481711
0.009206942 -0.013768805 -0.03473619 -0.011613458 0.020806951 0.021736013 -0.021057826 -0.013463724
0.019331705 0.009226607 0.044265714 0.0026893928 0.050875656 0.0069292528 0.0005260933 -0.0134525355
-0.012434819 0.020490505 0.009151659 -0.0040798574 0.017201282 0.00088899554 0.022874858 -0.00036533308
-0.0058929627 0.0016099107 -0.022787265 0.029771503 0.010622624 0.024586217 0.0091654565 -0.0070890426
0.049050946 0.03651973 0.027178593 0.01745027 -0.0038097089 -0.013027193 0.0037033823 -0.033834588
-0.005124495 -0.030665163 -0.03061695 -0.004723072 0.013149944 -0.031690996 0.014160902 -0.0004634451
0.0103024375 -0.048561797 -0.0053928345 -0.01673697 0.0064811003 -0.014079022 -0.0005205482 -0.023898834
-0.023856686 -0.0008501735 -0.008399932 -0.034594674 0.016623123 -0.0054052416 -0.016728753 0.0027002986
0.022805184 0.022078883 -0.019150414 -0.023640629 0.008834389 0.004177529 -0.0037681428 -0.000721939
0.00013048628 0.0020094225 -0.033319436 0.015502876 -0.029207904 -0.026720874 0.01875472 -0.019293077
-0.013073416 -0.0036318367 0.024439419 0.027419768 -0.02023744 0.016106604 0.03436377 -0.030751413
-0.023429874 -0.032153368 -0.021844491 -0.0013449751 -0.0132655045 -0.02398029 -0.015078315 0.020029586
0.03282288 0.0049827257 -0.022776634 -0.024388136 -0.00061127514 0.013514108 0.012315069 -0.033608418
-0.022641791 0.008038604 -0.033602085 0.00991099 -0.025024554 -0.0004086478 0.00028261793 -0.027504208
0.009668069 0.0009808019 0.021215977 0.006425426 -0.016344551 -0.012891353 -0.016439196 -0.0056433794
-0.00319722 -0.011562066 -0.0028209607 0.007689953 -0.013908362 -0.017756714 0.02439729 0.011445969
0.019729637 0.020018697 0.040504698 -0.0060474114 0.0019445389 -0.011202846 0.0044442206 -0.0030102117
-0.015524556 0.0153702665 0.012529305 0.02792993 -0.031398725 0.0021950447 0.0055353115 -0.0122590335
0.0004296185 0.017044941 -0.012666236 0.0052856556 0.011391637 -0.014262107 -0.0028805726 -0.023010785
-0.006793538 0.004245867 -0.036754496 0.034022715 -0.032117344 -0.021164684 0.0057371245 -0.011142239
-0.011816365 0.023186337 0.002550184 0.013724277 -0.003465091 0.013474035 0.017476188 0.010359066
0.011067277 0.009517736 -0.032656565 0.006377051 -0.007807316 -0.025364803 0.0032325452 -0.038090907
-0.008439771 -0.0024376505 0.008403213 -0.017623499 0.0029854756 0.0011780778 -0.0027592985 -0.010934613
0.0014829263 -0.0018986318 -0.042600892 0.000514643 0.048647664 -0.0028458994 0.01394383 -0.031590972
0.03114008 0.03408497 -0.029833872 -0.023550216 -0.011533754 0.010520578 0.0056132474 0.014883329
0.01147273 0.020362914 0.035471104 -0.0061668255 0.025558593 -0.014658283 0.019376513 0.019009283
0.024213614 0.007839652 -0.016901817 0.021351364 0.0026839555 -0.012553153 0.0021881533 -0.0006042274
-0.0203071 0.0028891875 -0.0061034844 -0.0150067825 -0.0030257448 -0.013557363 -0.022603737 0.01194327

layer_1.bias f4 [128]
00000000: a322 903d 4e2f ca3c fa0e 01bc 1788 02bc
00000010: f95a 823d 6314 0c3c 2a11 703c 4717 26bd
00000020: f209 4d3d 157e 26bc 6e80 443c e75d 353b
00000030: 6498 b6bb 7bc5 183d 0c9f 46bd e7df 723d
00000040: 9864 073d 9252 a03b 04b7 7e3d 43be a03c
00000050: 798f 2d3c 478a dd3c 4f48 a53d fdf7 263d
00000060: fcf9 0cbd f524 683d b91c 033d c65b 263d
00000070: 8db7 753c 2c72 703c 1c04 9d3d a74a ab3c
00000080: 09d6 e83c 8ca8 e03c d4ab 95bc 06f8 7e3c
00000090: 6d65 d0bc 6c00 92bc e8eb 303c d58a 023d
000000a0: 11f4 2bbd b982 5f3d f0af 013c d031 5e3c
000000b0: ddae 59bb c4ea 843d cb41 d8bb 2f5b 973c
000000c0: 972b 8e3d 9bc9 e63d cfc6 f03c b89d 363c
000000d0: 80ad 613c 9e69 1b3c d176 f43c ea88 1bba
000000e0: 54c2 1cbc 111c 5f3d 4eff 07bd a2b4 94bc
000000f0: 4005 b63c 470c af3c f12a 573d 8655 ef3c
00000100: 99a7 27bc b073 8a3d 5183 423c 9d3b c9bc
00000110: 76b1 143d 9a65 62bd b1e0 f2bc 74cf 813d
00000120: 4790 443b 6a01 8b3d 9d70 653c bcca 3cbd
00000130: 0205 033d 5aff 5e3d f88f 16bc 9563 fdbc
00000140: 2ba0 0738 d8f4 01bd fd86 cebc 973e e23c
00000150: 1ffd b23c c4eb 7dbc bcfb 123c b04f 223d
00000160: 0458 5b3c 3cda 973b ce13 433d 4e74 e0ba
00000170: 355d 2f3c c890 d03c a243 0d3d 26db c1bc
00000180: b700 ab3c 3d49 223d 90bf 493d 19b9 263d
00000190: 5612 efbb 2352 5d3d 5b28 233d e006 873c
000001a0: 5b8d dc3c c6a0 d83c 7e45 1b3d 3dd5 ee3c
000001b0: 0e4d adbc 89b5 fcbb 009b f3bc 8b14 4b3d
000001c0: 3853 963b d1a5 18bc adbd bfbc 3e21 203d
000001d0: 1575 0e3b 597c 833d 3012 553d 6db2 3e3d
000001e0: b68c 643d 823b 3d3d 4cfb 873d 060d 05bc
000001f0: 7741 d63b 5369 483c 3f9a 5f3d 90e6 e93b
0.070378564 0.02468076 -0.007877106 -0.007967017 0.06365008 0.008549782 0.01465253 -0.040549543
0.050058313 -0.010161896 0.011993511 0.0027674378 -0.0055723656 0.037297707 -0.048491523 0.05929556
0.033054918 0.0048926556 0.062186256 0.019621974 0.010593289 0.027043475 0.080704324 0.040763844
-0.03441809 0.05667587 0.032009814 0.040614866 0.014997375 0.014675658 0.076667994 0.02090962
0.028422372 0.02742412 -0.01827041 0.015562063 -0.025438989 -0.017822467 0.010798432 0.03187068
-0.041980807 0.054568026 0.007915482 0.013561681 -0.00332158 0.064900905 -0.00659964 0.018476097
0.06941908 0.11268922 0.029391674 0.0111460015 0.013774276 0.00948563 0.029841812 -0.00059331825
-0.009567816 0.054470126 -0.033202462 -0.018152539 0.0222193 0.021368159 0.052531186 0.029215585
-0.0102328295 0.06760347 0.011872129 -0.024564559 0.036302052 -0.055272676 -0.029648157 0.06338397
0.0029993223 0.06787379 0.0140039 -0.04609178 0.031987198 0.05444274 -0.009189598 -0.030931273
3.2335676e-05 -0.03172764 -0.025210852 0.027617736 0.021849213 -0.015498105 0.008971151 0.039626777
0.013387684 0.00463417 0.04762631 -0.0017124505 0.010703375 0.025459662 0.034488328 -0.023664068
0.020874364 0.039620627 0.049254954 0.040703867 -0.007295887 0.05403341 0.039833408 0.01648277
0.026922872 0.02644385 0.03790807 0.029154414 -0.021154907 -0.0077120704 -0.029736996 0.04958014
0.004587557 -0.009316877 -0.023405874 0.039094202 0.0021737267 0.06420202 0.052019298 0.04655688
0.055798255 0.04619933 0.06639728 -0.008120781 0.0065385657 0.0122321425 0.05459046 0.007138081

layer_2.weight f4 [128, 256]
00000000: 9da1 bcbd f995 e83d 5e8c f8bd 88f9 dabc
00000010: 8609 113d 073e 14bd ea82 5b3c e178 c93d
00000020: 6230 eabc 6c0b d13d 00c6 a3bb a106 06be
00000030: e02c 0e3e 14d4 f1ba 29aa 8a3d 01f8 1dbd
00000040: 43bf 103a 6272 e43d 9d2f 6c3a b881 b4bc
00000050: 3b8d 09bd 9c95 823d ba47 403d cedf 183e
00000060: c9ea a5bc fdbc 3c3e 3197 0a3d da83 bdbb
00000070: 889a 033e dcb6 28bd eebe 2abb 658a 45bd
00000080: c904 14bd 3ba5 12bd f5f7 873d 6acc 2ebc
00000090: e110 363d 3e1a 263d 65a7 3dbd bfb7 ebbc
000000a0: 31b3 d6bd b9fc 003e bd18 f3bd 7611 d83d
000000b0: 4348 a7bd 20cc 0d3c 563e 7abc 8e5f 703c
000000c0: 17a9 75bc cbd5 c3bc ca80 083e c853 bdbb
000000d0: 512a 923d 668e 2ebc 2bd5 343d 064f fbbc
000000e0: 67f3 be3d e33d ae3d 227d f6bc 6623 09bc
000000f0: 3d8c 1dbc 5e93 623b 1dc2 08be 2beb 0c3c
00000100: fdc4 8abd 4738 6d3c 6c92 e13d 1e85 e03c
00000110: 87b5 693c e926 bc3d 3cc1 29bc 1600 613d
00000120: cac8 c53b e3c4 f63c cf5f 5f3d 056c c4bb
00000130: 3982 523d abfe cabc 38ec 583d cb38 413d
00000140: d999 323c c4a1 223d 4383 c6bd 8352 153d
00000150: 4274 89bc 4dfb e5bc 808c 6dba 9c14 263d
00000160: 0128 1d3e ff4d 283d 0681 85bc 9f58 b73d
00000170: 863e 123d d6ca 733d 2038 2ebe 2b01 8c3c
00000180: 319e 283d b72e 9ebc 8440 8cbd 6881 213d
00000190: 89ac 6cbd a74b 02bd 2e9d ef3d 91a5 c43d
000001a0: 5561 053e d19c 0d3e e0e4 1e3c 3269 f2bd
000001b0: c024 ba3c 07e3 02bd 09dc 8d3d 723d 313c
000001c0: 5154 0abe b139 9c3c bd54 5d3c 53e4 bd3d
000001d0: 16b1 c1bb f28c d73c 70d3 51bd ea1e cabc
000001e0: a599 f43c 63cc b33b 0141 ac3d 6777 8e3d
000001f0: 09af fcbd 781b 4abd 0473 313d e05c 26bd
00000200: 6247 67bd 1a0a 443e ad44 3a3d edb0 b23d
00000210: a98d a6bd bc13 203e dadb 613d af28 3e3d
00000220: be15 e9bc 16c4 2a3d 8cbd fb3c 232d ecba
00000230: 6acd 0ebd a0b2 be3d d642 a53d 1897 a13d
00000240: c5f3 31bd df87 853c 9aec 23bd 3f8a 043d
00000250: 7bbc d0bd 39c7 0ebb a437 323d 692d 063e
00000260: a9ca a83c 9a91 923d 5809 de3d 1540 c13d
00000270: 15b9 ec3d e631 90bd c38f 413d a576 0bbe
00000280: c62b 243c be5e 9dbd 019e c8bb 7017 973d
00000290: 3413 8dbc 3a35 2bbc b826 a9bc c9cb 72ba
000002a0: 2741 18bd 21db 4dbd 1284 9fbd 23d2 723d
000002b0: 4d60 ae3d eb1c a9bd ee22 b93c 9bba dabd
000002c0: fbfa 64bd 9274 e4bd 7648 50bc 458b 68bd
000002d0: 3052 cb3d ae3e 4dba 879b 063c 6eff 263e
000002e0: e63e e6bb 1155 23bd 3fda 933a a6ab 3e3e
000002f0: 9689 91bd 2636 0fbe 8b08 52bc 81fa 3bbd
00000300: f834 6e3d 186c 36be f081 9ebd 0dce 9ebd
00000310: 6a5a d1bd 83a9 df3c 83cf 593c 9ec5 87bd
00000320: 6adc ea3b a897 8bbc 88d7 67bd 7d9e 04be
00000330: 1b74 2a3d 621c aebd bb2c 993c 3b20 173e
00000340: dc29 333d 4ad0 acbc f270 98bd 86c4 20bc
00000350: e0af 65bc 10dc 94bd f7ec c2bc a69d 973d
00000360: 3567 a3bd f0ce 06bc eb62 4dbd 93c3 27bd
00000370: 8185 853d 7c42 d33c 7ad4 883c 0cba b0bd
00000380: 6712 383d 7e1e a1bd 4808 dbbb 4366 743d
00000390: 4b66 2bbd faa8 12be 9b0d 88bc 5607 53bc
000003a0: 3ed6 183c ac58 51bd bf26 d0bc 9961 273e
000003b0: 8d07 c8bd 8aef 073c 6e8f bd3c b828 e33b
000003c0: a461 a93c 3e52 14bd 401e e0bc 796f 60be
000003d0: 00c0 fb3d af5c 183c 6bc9 26bb 8153 bdbb
000003e0: 4ebc 8e3b fe23 193d be33 48bb 8d61 603b
000003f0: 3ed6 c0bd 642e 90bb 4ec1 b3bd 1087 633d
-0.09210513 0.1135673 -0.12136148 -0.026730314 0.035409473 -0.036191966 0.013397912 0.09837509
-0.028587524 0.10207257 -0.0049979687 -0.13088466 0.13884306 -0.0018450045 0.06770737 -0.038566593
0.0005521664 0.11154629 0.00090097805 -0.022034511 -0.033581953 0.06376192 0.046943404 0.14929125
-0.020253556 0.18431468 0.033835594 -0.00578354 0.12851918 -0.041190013 -0.0026053744 -0.048227686
-0.036137376 -0.035802107 0.06639091 -0.010668853 0.04444969 0.04055237 -0.046302218 -0.02877414
-0.10483397 0.12596406 -0.11869953 0.105502054 -0.0816808 0.008654624 -0.015273651 0.0146712195
-0.014993927 -0.023905655 0.13330379 -0.00577781 0.071369775 -0.010654068 0.044148605 -0.03067733
0.09323769 0.08507898 -0.030088965 -0.008370256 -0.009615955 0.00345727 -0.13355298 0.00860099
-0.06775854 0.01447875 0.11014256 0.027407225 0.014264471 0.09187109 -0.010361012 0.054931723
0.006035899 0.03012318 0.05453473 -0.0059943222 0.05139372 -0.024779638 0.05295965 0.047173303
0.010900938 0.039705053 -0.09693005 0.036455642 -0.016779069 -0.028073931 -0.00090617687 0.040547
0.15347292 0.041090008 -0.016296875 0.0895245 0.03570416 0.05951961 -0.17013597 0.0170904
0.041166488 -0.019309385 -0.06848243 0.039430052 -0.05778173 -0.03181043 0.116999015 0.09601892
0.1302541 0.13829352 0.009698123 -0.11836471 0.022722602 -0.03195479 0.06926734 0.010817872
-0.13508727 0.019070478 0.013508973 0.09272065 -0.005911003 0.026312325 -0.051227033 -0.024672944
0.02985842 0.0054870113 0.08410836 0.06956368 -0.12338073 -0.049342602 0.043322578 -0.040615916
-0.05646456 0.19144478 0.04547565 0.08725152 -0.08132488 0.15632528 0.055141307 0.046425518
-0.02845275 0.04169091 0.030730031 -0.0018018823 -0.034863867 0.09311414 0.080693886 0.07890147
-0.043445367 0.01630014 -0.040020563 0.032358404 -0.101922 -0.0021786226 0.043510094 0.1310326
0.020604448 0.071566775 0.10841626 0.09436051 0.11558739 -0.07040767 0.047256242 -0.13619478
0.010020202 -0.07684086 -0.006122351 0.07377517 -0.01722107 -0.010449702 -0.020648345 -0.0009261934
-0.03717151 -0.050257806 -0.07788862 0.059282433 0.08514462 -0.08257469 0.022599664 -0.106801234
-0.055903416 -0.111550465 -0.0127125885 -0.056773443 0.099277854 -0.00078294694 0.008215792 0.16308376
-0.007026541 -0.039876048 0.0011280252 0.18620166 -0.071063206 -0.139855 -0.01281942 -0.045893196
0.058155984 -0.17814672 -0.07739627 -0.07754145 -0.10222323 0.02730251 0.013294104 -0.06629489
0.0071673887 -0.017040089 -0.05660203 -0.12951083 0.041614633 -0.08501507 0.018698087 0.14758389
0.043741092 -0.021095414 -0.074434176 -0.00981248 -0.014018983 -0.07268536 -0.023794634 0.07403116
-0.079786696 -0.008228049 -0.050143164 -0.040958 0.065196045 0.025788538 0.01670288 -0.086292356
0.044939425 -0.07867144 -0.006684337 0.059667837 -0.0418456 -0.14322272 -0.01660805 -0.012880167
0.009328423 -0.051109955 -0.0254091 0.16345824 -0.09767065 0.008296857 0.023139682 0.0069323443
0.020676441 -0.036211245 -0.027358174 -0.21917523 0.122924805 0.009299441 -0.0025449644 -0.0057777767
0.0043559438 0.03738784 -0.003054842 0.0034237832 -0.094158635 -0.0044000614 -0.08777104 0.055548728

layer_2.bias f4 [256]
00000000: 3c28 e3bc 7081 d23c bd72 29bb 8a9d 9ebb
00000010: 086a 493d 5c6b 3bbc 41d9 113d 8200 9e3d
00000020: 5093 dc3c 5bbb 583d 7008 63ba a304 68bd
00000030: 29f4 d73d fa7c ffbb a463 943d 4c14 253d
00000040: 932d 073d 2c0b 753c a579 0ebc 3667 33bc
00000050: abf3 123c bc27 0b3d d439 0c3d c372 6c3d
00000060: 76f2 d13b 74e0 8a3d 18c7 c4bb d3dd 92bb
00000070: 4f60 5f3d 81a1 d83c ed4d 04bc 39b2 0a3c
00000080: 661c b6bb 22f0 5dbc 9535 cd3c e62a 3abc
00000090: 176a 7e3c d951 0c3d f23a febc 6b4d f3bb
000000a0: df0c 9a3c 0627 4f3d 55a5 38bc 8ee1 8e3d
000000b0: e6ea df3c 820e 5c3d 678f c3bb eb9e 1dbc
000000c0: 160b 20bc b140 c7bb 0914 753d 8c6e b9bc
000000d0: ff72 f73c 9da4 bd3c fbb2 453d be4f 6b3c
000000e0: 9692 663d 8f6c 693d 6236 013d 5f1f 18bc
000000f0: 340b 173d 51c8 c4bb 7eef ca39 5342 c9bb
00000100: cc63 203d 5322 923c bc98 863d 9ba8 073d
00000110: 5916 11b9 0582 5e3d 2970 263d 07b9 243d
00000120: 8e11 fbbb 7606 693d a35d d43c 179a 743d
00000130: 042d 863c c647 683b 6db7 9c3d 7580 d53b
00000140: 1027 59bc a0c8 9e3d 2eab 85bc 7ed8 093d
00000150: 70c0 cb3b 990b acbc 277e f0bb 095f 0c3d
00000160: 6264 703d 780b 18bc 18a1 02bb 85fb 2e3d
00000170: 70dd 0a3d 3ede 84bb d6fb ccbc 80bd 5d3d
00000180: 41a4 4d3c c08b 1dbb 523d 753c 4741 d13c
00000190: e922 d9bc f44b 2abc b483 423d 11bf 0c3d
000001a0: 9bf6 783d ff61 663d ae40 3b3d 20b0 febc
000001b0: 30a0 983c 8560 783c eeff 62ba 635d d03c
000001c0: efb0 95bd 3dd1 9e3c d75d d83c 32fb 183d
000001d0: 2245 19bc 98cc 9d3c 30f2 d63c 1dfe 303c
000001e0: 9ca4 083c a0de 12bc 2ecf 103d a456 ad3d
000001f0: f5ca 41bc 6ad1 963b 3d6a 7a3d f666 613d
00000200: 091f 633d 051d 983d 3f34 303d 6f02 be3c
00000210: d28f 75bc 03db 9b3d cd1f 293d b233 513c
00000220: 70a0 843a 658d 9b3d 0306 0e3d 66c6 0e3d
00000230: d81d eb3b 60c2 763d 09ee 923d 1112 2f3d
00000240: 34af 2a3c 34a0 493d 5d49 353d e7f0 9d3d
00000250: b954 a7bc c785 1ebc 3899 d43c 823b 4c3d
00000260: 1c4a f7bc 5055 373d 5e92 763d 07b7 2c3d
00000270: 77ff 0a3d d7fb 8bbb 4911 2d3b 3855 2abc
00000280: b350 883c 9986 2bbb 03f8 08bc fa7b 863b
00000290: 4710 23bc 02c9 c4bb 643e 1c3d 7ee7 543b
000002a0: d08a f6bc 82c0 cabc 9c97 f2bc 34c9 863d
000002b0: 79cc 7e3d e5d9 21bc 2a9d a93c e142 03bd
000002c0: 825a ccbc 4170 533c 54c9 89bc 304f 7fbc
000002d0: 2346 e83c 328e e03c a4ad 643c 260f 823d
000002e0: 65b1 9c3c cf1a 41bc a87c 163d ea3c 9a3d
000002f0: 014b 32bd b4c9 5b3c a9f9 efbb 835f f3bb
00000300: efdd f63b a79a dabc 3c45 30bc 6d86 32bc
00000310: ee33 663a 55ea 4f3c b8a9 883b 19b3 ba3c
00000320: e9e8 23bc d063 a73c f380 b2bb af22 8cbc
00000330: a103 343c 684d 1cbd d2c7 4d38 0875 853d
00000340: 601c 8f3c 31f3 31bc cfec f03b a20e 7e3c
00000350: dc83 013d af22 213b 59ad 97bc e7d4 b53c
00000360: 4a70 183c 8b93 e23b 59ab 953c 9bbd bdbb
00000370: 926f 1c3c 1060 703c 44de de3b 1a80 0dbb
00000380: 9c33 6a3d 8c85 8dbc a2c8 c4bb 68d5 e73c
00000390: 5f51 eeba e2eb 80bd 0321 d1bc cc83 11bc
000003a0: 5806 1abc d8fe 59bc 4aba cabc 7ea5 943d
000003b0: 30bd d9bc 8280 453c 6166 103c b4b1 c4bb
000003c0: 2ade 853c 2577 db3c 7c7e 06bc cf90 a0bc
000003d0: 7304 773d b0f7 edbb b454 313d ecb7 fd3c
000003e0: 920a b3bb d087 44bc 4dd8 e3bb bba8 e4bb
000003f0: 7e54 2f3c 9638 fbbb f279 b23b 563b 0a3d
-0.027729146 0.025696486 -0.0025855743 -0.0048405575 0.049173385 -0.011439171 0.03560758 0.077149406
0.026925713 0.05291305 -0.000866062 -0.056645047 0.10544617 -0.007796881 0.072455674 0.04030256
0.033002447 0.014956277 -0.0086959945 -0.0109499 0.008969228 0.03397344 0.034234837 0.057726633
0.0064070774 0.06781092 -0.006005179 -0.00448201 0.054535206 0.026444199 -0.00807522 0.008465343
-0.0055575846 -0.013546022 0.025049964 -0.011362767 0.0155282235 0.034257744 -0.031033967 -0.0074250004
0.018804966 0.050574325 -0.011269887 0.06976615 0.027333688 0.053724773 -0.0059680226 -0.0096204085
-0.009768268 -0.00608071 0.05983356 -0.02263572 0.030206202 0.023149783 0.048266392 0.014362274
0.05629214 0.056988295 0.031546004 -0.009284823 0.03687592 -0.006005325 0.00038706878 -0.0061419397
0.039157674 0.017838633 0.065721005 0.03311978 -0.00013836603 0.054323215 0.040634308 0.04021552
-0.007662005 0.056890927 0.025923556 0.059717264 0.016378887 0.003544317 0.07652173 0.0065155574
-0.013253942 0.0775311 -0.016316976 0.03365373 0.0062180087 -0.021001624 -0.0073392573 0.03427032
0.058689483 -0.009280078 -0.0019932445 0.042720336 0.033902586 -0.0040548136 -0.025022428 0.0541358
0.012551368 -0.0024039596 0.014968233 0.025543822 -0.026505904 -0.010394085 0.047488883 0.034361903
0.060782056 0.0562458 0.04571598 -0.031089842 0.01863107 0.015159731 -0.00086593523 0.025435155
-0.07309138 0.019386882 0.026411934 0.037348934 -0.009354861 0.019262597 0.02623853 0.010802773
0.008340027 -0.008964211 0.035353832 0.08463791 -0.011828174 0.004602601 0.061136473 0.05502983
0.05544952 0.0742741 0.043018576 0.02319452 -0.014987903 0.076101325 0.041290093 0.012768673
0.0010118615 0.07595328 0.034673702 0.034857176 0.0071751885 0.060243964 0.07174308 0.04274184
0.010417748 0.049225047 0.044259418 0.07711964 -0.020426141 -0.00967545 0.025951967 0.04986144
-0.030186705 0.044759095 0.06019818 0.042166736 0.033935037 -0.004271965 0.0026408008 -0.010396294
0.016640043 -0.0026172756 -0.008359912 0.0041041346 -0.009952611 -0.0060054073 0.038145438 0.0032486613
-0.030095488 -0.024749998 -0.029613309 0.06581345 0.06220672 -0.00987861 0.020704824 -0.032046203
-0.024945501 0.012905181 -0.016819634 -0.015582845 0.028353756 0.027411554 0.013957415 0.063505456
0.019127557 -0.011786177 0.036739975 0.0753115 -0.04352856 0.013414789 -0.007323463 -0.0074271574
0.0075337808 -0.026685072 -0.010758694 -0.010896307 0.0008781542 0.012690146 0.0041706227 0.022790479
-0.010004261 0.020433336 -0.005447501 -0.017106382 0.010987193 -0.038159758 4.9061906e-05 0.065164626
0.017469585 -0.010861204 0.0073524485 0.015506418 0.03161989 0.0024587323 -0.018515276 0.022196246
0.009304116 0.006914561 0.018270181 -0.005790425 0.009548085 0.014671341 0.0068013985 -0.0021591247
0.057178125 -0.017275594 -0.0060053626 0.028300002 -0.001818221 -0.06294991 -0.025528437 -0.0088815205
-0.0094009265 -0.013305388 -0.024747033 0.07258128 -0.02657947 0.012054564 0.0088134715 -0.006002629
0.016341288 0.026790211 -0.008208867 -0.0196003 0.060306977 -0.0072621927 0.04329367 0.03097149
-0.0054639066 -0.011995271 -0.0069532753 -0.006978122 0.010701297 -0.0076666577 0.005446666 0.033747993

layer_3.weight f4 [256, 10]
00000000: 6641 66bd 8a75 4fbc 54be 6f3d bb7c aa3c
00000010: d881 503d 52c5 b3bd b51d 283c db76 36bd
00000020: 2ca4 243d 5186 153d 9390 a7bd 67a2 bd3d
00000030: 194e 633d 19d2 fdbb dc40 b3bd 50ba 4fbd
00000040: e48f 033d b0aa 313d f6bf c9bc bd11 25be
00000050: 4dfa 463d 85f0 88bc d8f6 0abd 05b4 adbd
00000060: 49dd 0abd 2348 9bbd 9bc1 68bd 4dff 883d
00000070: d4ea b03c d36a 813d 4143 a5bc 0b5d c53d
00000080: f23c 273c f191 58bd d5b3 2abd 8c16 11be
00000090: ae16 d5bc f80d 503d a7cc 1c3d a4bf 0fbe
000000a0: 9975 8ebc 97f2 57bd 57af dbbd 12da 6e3d
000000b0: 6da3 003d 3c32 643c 80e9 74bd 082b d0bb
000000c0: 9252 98bd 0174 733d 566a 383d 08fa b3bd
000000d0: 7341 ebba c35a e0bc 7378 46bd 60ab 173d
000000e0: 614e 053d fff9 01be 0590 533c 5d84 a63c
000000f0: a8fd 99bc 4d9d b0bd a31c 8b3a 7900 65bb
00000100: b7a3 eb3a 1ef8 f63c 7c97 023d b822 b7bc
00000110: aebf 14bd a25d bc3c 6c71 7d3d 4dfc f13c
00000120: d6a5 293d 55a8 ccbd 2dc1 84bc 3eca 203d
00000130: 503f 5d3d 10bc 813d c1af 16be 47ba a5bd
00000140: e8a8 e03c 0d2a a3bd 4f22 abbc d98a 483d
00000150: 9837 eb3c 53c5 553d b55b 24bd 1f14 17bd
00000160: 3797 21bc b5b2 ab3c 0eb7 813d c68e 8f3d
00000170: bccc e5bc c962 993c 65f4 90bd 68b4 ddbc
00000180: dc61 d93d 8415 dc3d 83b2 22be f5cc cfbd
00000190: dd16 6a3b bd7a 203a 65c8 543a 07b9 ac3c
000001a0: 27ab 8a3b 386f b7bc e4c8 9f3c 18cc 6a3a
000001b0: 4b64 953b 4d1d 89bc a900 263d f23e a4bd
000001c0: 898b 713d f961 1b3d f2b9 90bc 653d efbc
000001d0: 98f5 0abd 2eb6 5abd 88df 703d 95c2 cdbc
000001e0: 7754 38bd b9ea 8b3c 6077 40bc 72cf 073c
000001f0: 879b 543c dd66 ec3c 2004 cdbd da3e a53d
00000200: 1886 fbbd a296 2c3d e96b 00bc f662 30bb
00000210: c2e6 3dbc 8c39 32bd 4db7 fe3a a8c1 0a3d
00000220: 0979 0cbc cd52 f1bc c204 b6bc 1388 133d
00000230: 6131 7bbd 6f2d c23d 3829 23bd 2085 2dbd
00000240: 180f ab3d 9f9c c4bc d9e7 79bd 5d9f 553d
00000250: 45bf 0ebe 7ac8 893d 0507 75bc 78dc 0bbd
00000260: 70f8 873d 57c9 40bd 4109 8f3d b017 453d
00000270: 7b55 b83b da5a dcbd c316 92bd 901f 8cbd
00000280: d0ec 233d 5344 353d ee42 c73c 0741 61bb
00000290: 7187 b4bd 8373 10bd 1de0 05be 85d9 b43d
000002a0: 5f0e 75bc 7b5e d4bc 09de 9e3d bdb1 4fbc
000002b0: 14c6 a0bd f4bc 163d e6d4 eebd 46fb 523d
000002c0: 47f7 893c df3f ebbd 9fd5 31bc f463 a9bc
000002d0: 3252 1aba dd1b 01bc 06e2 6c3c 7bba bfbb
000002e0: 16fc 8abc fcfa 9ebc 922d 55bc 5799 7c3b
000002f0: 4e74 52bb c0ff 8a3c e3a4 cd3b a6d4 1c3a
00000300: 2a16 72bc dbe9 a9bb 4ddd 973b f035 273c
00000310: 8dcf cc3b 64bc 28bd e1a1 1b3d a771 103b
00000320: 0b50 a9bd b942 9c3c 8130 343c 9391 663c
00000330: dbc1 253d f496 a6bd d45d a8bd 82f1 c73c
00000340: feee a93c ee9e 3b3c 3e2c 6dbd f024 4bbd
00000350: 8d81 8dbd cc89 c0bd e959 063d 6bd8 cfb9
00000360: 869d 7c3d a657 93bd b3e5 2cbd dcd3 3d3d
00000370: 8a62 e53c 59ec 52bd ed58 2bbd 8d8c 583d
00000380: 3c3b 4cbd 5787 a63d 92b3 c3bc 4ef0 a7ba
00000390: e5f2 79bc b3ae 03bc 798b 96bd 9e9d 4c3d
000003a0: 82e8 8bbd 8761 483d 4770 71bd d257 7e3d
000003b0: edc4 d5bd bd74 0fbe b6c6 2dbd a800 0fbc
000003c0: 5efd afbd 77e0 013d cfa3 7e3d 07c6 62bd
000003d0: 89e5 b8bc 92f4 8bbd b458 f9bc d030 e63d
000003e0: 36ab 073d b617 77bd bfc4 3cbe c560 f33c
000003f0: f95f 29be 537b ef3c 95bd a6bb e618 1a3d
-0.056214713 -0.012662301 0.05853112 0.02081143 0.05090508 -0.0877787 0.010260989 -0.044546943
0.04019563 0.036505047 -0.08181872 0.092594914 0.0554944 -0.007745993 -0.08752605 -0.05071479
0.032119647 0.04337567 -0.024627667 -0.16120048 0.04857855 -0.016716251 -0.033926815 -0.084816016
-0.03390244 -0.07582118 -0.05682526 0.0668932 0.02159635 0.06319203 -0.02017367 0.09636887
0.010207402 -0.052873556 -0.041675407 -0.14168757 -0.026011791 0.05079457 0.03828111 -0.14037949
-0.01739006 -0.052721586 -0.10726803 0.058313437 0.031405855 0.013927992 -0.059792995 -0.006352786
-0.07437624 0.0594368 0.045023285 -0.08787924 -0.0017948583 -0.027387029 -0.048454713 0.03702867
0.03254545 -0.12693022 0.012912755 0.020326788 -0.01879771 -0.08623753 0.0010613393 -0.0034942909
0.0017977868 0.030147608 0.031882748 -0.022355422 -0.036315612 0.022993866 0.061875746 0.029539252
0.04141792 -0.09993044 -0.016205395 0.039255373 0.054015458 0.06334698 -0.14715482 -0.0809217
0.02742429 -0.07967005 -0.020890383 0.04896054 0.028713033 0.052190136 -0.04012652 -0.036884423
-0.009862713 0.020959238 0.06333743 0.07009654 -0.028051727 0.018723862 -0.070778646 -0.027063563
0.10614368 0.10746291 -0.1588841 -0.10146514 0.0035719194 0.0006121805 0.00081170193 0.021084322
0.0042318287 -0.0223919 0.019504972 0.0008956804 0.004559075 -0.016737605 0.040527973 -0.08019818
0.05897096 0.03793523 -0.01766679 -0.02920408 -0.033925623 -0.053396396 0.058806926 -0.025117198
-0.045002427 0.017079698 -0.011747211 0.008289205 0.012976534 0.028857643 -0.100105524 0.080686286
-0.12281436 0.042135842 -0.007838228 -0.0026914454 -0.0115906615 -0.043511912 0.001943329 0.03387609
-0.008573779 -0.029458428 -0.022219066 0.036018442 -0.06132639 0.09481322 -0.03983423 -0.042363286
0.08352488 -0.024000464 -0.061012123 0.052153934 -0.13940151 0.06727691 -0.014955287 -0.034145802
0.066391826 -0.047067013 0.06984187 0.048118293 0.0056254244 -0.10759516 -0.07133248 -0.068419576
0.040020764 0.044254612 0.024323907 -0.0034371035 -0.08814896 -0.03526641 -0.13073774 0.08830551
-0.01495704 -0.025923958 0.077571936 -0.012676653 -0.078502804 0.036801293 -0.11661701 0.051509164
0.016841544 -0.11486792 -0.010854154 -0.020677544 -0.0005886882 -0.007880178 0.014458185 -0.0058510876
-0.016965907 -0.019406788 -0.013011353 0.0038543546 -0.003211278 0.016967654 0.0062757595 0.0005982615
-0.014775792 -0.0051853484 0.0046345354 0.010205731 0.006250328 -0.04119529 0.037996177 0.0022040398
-0.0826722 0.019074785 0.010997892 0.014072794 0.040468078 -0.08134261 -0.08221021 0.024407152
0.020743843 0.011451466 -0.05790352 -0.049595773 -0.069094755 -0.09401283 0.03280059 -0.0003964336
0.061673664 -0.07194452 -0.042211246 0.046344623 0.028001089 -0.05149493 -0.041832853 0.052868415
-0.049861178 0.08131283 -0.023889337 -0.0012812705 -0.0152556645 -0.008037257 -0.07350821 0.049955003
-0.06831457 0.048921134 -0.058944967 0.06209547 -0.10437951 -0.14009376 -0.042425834 -0.008728184
-0.08593248 0.031708207 0.06216794 -0.055364635 -0.022570388 -0.068337575 -0.030437805 0.11239779
0.033122264 -0.060325347 -0.18434428 0.02970923 -0.16540517 0.02923361 -0.005088518 0.0376214

layer_3.bias f4 [10]
00000000: cf59 f5bc ae1c 223d a3c0 d3b9 29e9 80bc
00000010: b558 c33b bbdd 623d 00bc 99bc 4682 3a3c
00000020: fc3b 69bd fe37 6e3a
-0.02995005 0.039578132 -0.00040388582 -0.01573618 0.0059615024 0.05538724 -0.018766403 0.011383599
-0.05694197 0.0009087323
