experiments/checkpoints/mlp_model_mnist.pth (torch, 547096 bytes, 6 tensors)

layer_1.weight f4 [128, 784]
000000 20 83 dd bc 50 20 0c bb 58 85 b8 3b 38 55 6a 3c
       -0.027040064 -0.0021381564 0.00563113 0.014302544
000010 28 83 94 3c 8a 36 e6 3c 00 ea cd 3c b3 83 e2 bc
       0.018128946 0.028102178 0.025135994 -0.02765069
000020 c0 7d 1b bc a8 e2 23 3c 9c 2a 62 bc 95 50 8b bc
       -0.00949043 0.0100027695 -0.013804104 -0.017006198
000030 c5 e9 24 bc 68 6f 85 bc e0 59 2f bc a0 0b c1 3a
       -0.010065501 -0.016288474 -0.01070258 0.0014728196
000040 be a9 bf bc c4 30 3d 3c 90 b1 45 3c 6e eb 07 bc
       -0.02339637 0.011547271 0.01206626 -0.008295877
000050 d2 cf 72 bc 30 81 4b 3b 50 00 fc 3b 20 5c f6 3b
       -0.014820056 0.0031052344 0.007690467 0.0075183064
000060 a4 51 c6 bb 98 90 0d 3c 94 95 c7 bb c8 af d6 3c
       -0.006052213 0.008640431 -0.006090829 0.026206866
000070 68 99 8e 3b d0 93 d1 3c 92 53 8b 3c 50 ac d2 3b
       0.0043517835 0.025583178 0.017007623 0.0064292327
000080 a6 52 22 bc 30 f6 7f 3b 01 8b 69 3c e1 7e 2c 3d
       -0.0099074 0.0039056651 0.0142543325 0.04211319
000090 db 9e 21 3d 47 a4 a9 3d a7 8d ae 3d 32 d7 90 3d
       0.039458137 0.082832865 0.08523112 0.07072295
0000a0 f8 d7 c2 bc 16 de 60 bc 40 58 ea 3c e7 84 73 bb
       -0.023784623 -0.013724824 0.028606534 -0.0037158073
0000b0 fa 7e 99 bc 7a d5 59 3c 4b 23 57 3c a2 25 62 3d
       -0.018737305 0.013295526 0.013130973 0.05521167
0000c0 83 7b 81 3d 72 0f 8b 3c 1e 03 eb bb 00 c4 b0 3a
       0.06322386 0.016975138 -0.0071720025 0.0013486147
0000d0 5b 81 0d 3d 7a 3e 9d bc 94 1d 37 3c 00 24 f1 39
       0.03454719 -0.01919483 0.011176486 0.00045993924
0000e0 c6 0b a6 3c c8 bd af bc da c1 91 3a da 79 4c 3d
       0.020269286 -0.0214528 0.0011120394 0.049920894
0000f0 fa f1 1d 3d 7b 30 db 3c 99 72 c9 3c ac a0 d1 3c
       0.038560845 0.026756516 0.024590777 0.02558931
000100 22 43 a4 3d 38 d2 64 3d bb 22 16 3d c9 ce 97 3d
       0.08020617 0.055864543 0.036654215 0.07412488
000110 dc 52 60 3d 2c 37 6c 39 56 b3 69 bc f0 a6 07 3d
       0.05476652 0.00022527267 -0.014263948 0.03311819
000120 d9 8d d6 3b 9c ef 7c bb 75 65 11 3d ec 5a 77 3d
       0.0065476713 -0.0038594967 0.035497148 0.060389444
000130 e6 63 98 3d 65 90 49 3d 03 f4 27 3d a0 ed c9 bc
       0.07440929 0.04920997 0.041004192 -0.024649441
000140 e5 0b ab bc 57 2d f8 3b 80 2e fd bb 8a 2d 0d bd
       -0.020879695 0.0075737643 -0.0077264905 -0.034467258
000150 4a 32 2a bc 95 db bf bc e0 b1 46 bb 38 9d 7d 3d
       -0.010387966 -0.023420135 -0.0030318424 0.061917514
000160 ba 85 e1 3c dc 79 f6 3c c9 5b 0d 3c 89 b9 94 3d
       0.027529586 0.030087404 0.00862784 0.072619505
000170 2e 9a 73 3d 01 b5 b8 3c 25 54 91 3d a4 03 bc 3d
       0.05947321 0.022547247 0.070961274 0.09180382
000180 7e fa cf 3d 05 28 63 3d 66 e7 d1 3d 35 69 aa 3d
       0.101551995 0.055458087 0.10249214 0.08320848
000190 fd 7b c0 3d 6d 64 ed 3d 23 21 c9 3d 54 e1 ef 3d
       0.09398649 0.1159142 0.098207735 0.117129
0001a0 d0 be c2 3d 1e 3a 90 3d 85 8f 5b 3d 24 93 81 3c
       0.09509051 0.07042335 0.053603668 0.015817232
0001b0 4a d5 8a bb 58 43 35 bd 1c 7d 5d 3c 50 49 9b bc
       -0.004236852 -0.044253677 0.013518598 -0.018955857
0001c0 7c c8 4f bc 40 58 fc 3c b4 e0 ba bc 7d 96 61 3c
       -0.012682077 0.0308038 -0.022812225 0.013768789
0001d0 26 da 3b 3d 67 2e af 3d 58 f6 3f 3d 9d e6 a3 3c
       0.04586234 0.085537724 0.04686579 0.020007426
0001e0 7c 2a bb 3d 8b 13 84 3d 05 9d 53 3d b7 00 8a 3d
       0.091389626 0.0644904 0.051663417 0.067384176
0001f0 10 57 09 3d ef 46 69 3d 49 93 66 3d 04 bd c8 3b
       0.033530295 0.056952413 0.056292806 0.006126048
000200 f6 8c ae 3d 18 92 98 3d ca 8e c6 3d e6 15 bb 3d
       0.0852298 0.0744974 0.096952036 0.09135036
000210 1d a9 ca 3c c4 90 2c 3d ff e9 06 3d eb dc 9c bc
       0.024738843 0.042130247 0.032938 -0.01914831
000220 48 b4 90 3c 8c 60 d4 3c 52 f8 58 3d b0 f0 bf bc
       0.01766409 0.025924943 0.05297119 -0.023430198
000230 66 9e b0 3c 9e 09 bb bc 44 d8 06 3c 03 7b 32 3d
       0.021559905 -0.022831734 0.008230273 0.043574344
000240 1a 60 97 3d e0 3a b3 3c bf 2c bc 3c d3 4a 57 3d
       0.07391377 0.02187866 0.022970555 0.052561592
000250 b5 40 18 3d 09 14 b9 bc e1 8c 37 3c 37 c6 87 bb
       0.037171084 -0.022592561 0.011203022 -0.004143502
000260 c6 25 e7 3c 74 5a 66 3c e9 d9 19 bd 51 03 fd 3c
       0.028216254 0.014059652 -0.03756133 0.03088537
000270 db be ed 3c 9b 3b e7 3b 63 8c 81 3d 10 05 e3 3c
       0.029021671 0.007056666 0.06325605 0.027712375
000280 a3 38 e8 3c 3a cb 87 bb ad d9 11 3c 8c 34 37 bd
       0.028347319 -0.0041440995 0.008901996 -0.044727847
000290 9a db 60 bd 54 41 86 3d 38 16 3b 3d 9a 88 96 bb
       -0.05489693 0.06555429 0.045675486 -0.004593921
0002a0 e3 42 cc bc 86 0d e7 3c fb c2 93 3c c4 47 01 bc
       -0.024934238 0.02820469 0.01803731 -0.007890645
0002b0 a9 2c 3b 3c 5b 80 36 3d 02 e1 d2 3b 22 88 56 3c
       0.011424222 0.044556003 0.0064355144 0.01309398
0002c0 6c 72 33 bc cd d3 dd 3c 83 e0 ff 3c 54 10 aa 3c
       -0.010952573 0.027078534 0.031234985 0.020759739
0002d0 b9 6a ee bc fe 90 57 3c 1a 61 c7 ba 4c 19 34 3d
       -0.029103624 0.013157127 -0.0015211434 0.043969437
0002e0 72 00 ac ba b8 38 b4 bc 66 b8 d2 bc 71 24 15 bb
       -0.0013122691 -0.021999702 -0.025722694 -0.0022757316
0002f0 57 6d 39 bb 52 7e 19 3c ca a0 74 bd 22 e6 2b bc
       -0.0028293931 0.009368496 -0.059723653 -0.01049188
000300 f0 bd 55 3b 6f 5d 9e 3d e6 59 4c 3d 29 f7 99 3c
       0.0032614432 0.07732665 0.04989042 0.018794613
000310 be 6c 82 bc c2 50 16 3c 0c b1 19 bd d5 e9 ae bc
       -0.015920993 0.009174528 -0.03752236 -0.021351734
000320 4e 20 14 3c 9b 06 9d 3b e5 7e ae bc c7 90 f3 3c
       0.009040905 0.004792047 -0.021300742 0.029732121
000330 ba 50 38 3d 40 40 bd b8 f3 3b 2e bd b1 d8 60 bc
       0.04499886 -9.02419e-05 -0.04253764 -0.013723538
000340 42 e4 ea bc fc 51 37 bc 70 81 11 3d 8f d8 f5 3c
       -0.028673295 -0.01118898 0.03552383 0.03001049
000350 25 95 e3 3b b3 b5 5b 3c 65 68 52 bc fd 80 c8 bb
       0.0069452696 0.01341002 -0.012842272 -0.006118892
000360 56 a3 2a bd ba 68 96 3c a1 0e 84 bc 4c 1b 0d bd
       -0.041659676 0.018360484 -0.016120257 -0.03444986
000370 0a b5 5d bd c8 d4 b1 3d 83 d7 a0 3d bf fb 9b 3c
       -0.05412773 0.08683163 0.078536056 0.01904094
000380 65 e8 45 bc c8 40 c1 bb e7 20 d0 ba 9d 69 2c bb
       -0.012079333 -0.005897615 -0.0015878946 -0.0026308068
000390 eb 72 1e 3d 44 95 2d 3d ff 8a d3 bc 10 8f d2 3c
       0.038683813 0.04237868 -0.025823114 0.025702983
0003a0 44 d4 10 3d a1 36 b6 3b 95 5c c0 bc e1 1e 16 bd
       0.035358682 0.0055607115 -0.023481647 -0.036650542
0003b0 4d 63 15 bd 7e aa 89 bc d7 52 08 3d 9a bd a8 3c
       -0.036471654 -0.01680493 0.033282127 0.020598222
0003c0 df ae eb 3c 92 79 e6 bb fa f6 37 bc a5 54 a3 3c
       0.028769908 -0.0070335353 -0.011228317 0.019937823
0003d0 8e 30 c6 3c 1f 6d ac bc 40 74 de bc de fa 83 bd
       0.024193075 -0.021048127 -0.027155042 -0.064443335
0003e0 10 1d 02 bd fb 80 78 3d 65 f6 f9 3c ea 32 31 3d
       -0.031765997 0.06066988 0.030512998 0.043261446
0003f0 f9 d9 4b bd 78 23 a5 ba 43 f5 a5 bc 04 35 56 3c
       -0.04976842 -0.0012599071 -0.020258551 0.013074163

layer_1.bias f4 [128]
000000 67 b0 ea bb a6 45 41 3d a3 4e 75 3b aa 91 87 3c
       -0.007162142 0.047185563 0.0037430904 0.01654895
000010 61 30 00 3d fd db 52 3d 3f e9 28 3d e6 f6 e7 3c
       0.031296138 0.05147933 0.041238066 0.028315973
000020 2f cb 5b 3d 52 cb 96 3d df 85 87 bc 9c f7 a8 3c
       0.053660568 0.07362999 -0.016543327 0.020625882
000030 bf 5b f2 3c d1 da be 3d 97 33 e6 3b 1f 82 73 3d
       0.029584764 0.0931908 0.007025193 0.059450265
000040 bc ef f5 bc 4b 5a 9f bb e2 17 30 3c 69 95 a4 3d
       -0.03002154 -0.0048630587 0.010747882 0.0803631
000050 bd db 87 3d f9 8f b9 ba ab 66 55 3b 95 7f 1e bc
       0.066337086 -0.0014157287 0.0032562416 -0.009673973
000060 41 7d 31 bd 3b f2 f4 bc d4 01 17 bd 21 bd 7e bd
       -0.043332342 -0.02990066 -0.036866978 -0.062192086
000070 dd f6 3c 3c d2 f7 e3 3c be 15 e9 3b e7 9d 28 bb
       0.011533466 0.02782813 0.0071131876 -0.0025728883
000080 46 53 a8 3c b1 a7 e3 3c 33 c2 57 3d 07 d8 1e 3c
       0.02054752 0.027789922 0.052675437 0.00969506
000090 1e 60 d6 3c d6 27 11 bd 0f 5c 35 3d 3f 05 06 bc
       0.02616888 -0.03543838 0.044277247 -0.008179962
0000a0 36 00 22 3c 16 b8 63 3d 00 00 94 3d 11 ef 13 bd
       0.009887746 0.05559548 0.072265625 -0.036116663
0000b0 e9 8a a6 3c 85 bd 82 3d bf 00 d5 3c 02 4e 01 3d
       0.02032991 0.06383804 0.026001332 0.031568535
0000c0 be e7 b6 3d 4e bb 14 bd 65 12 34 bd b9 40 06 3d
       0.0893092 -0.03631144 -0.043962855 0.032776568
0000d0 71 c1 0d 3d e2 2e 1a bd e2 3a 0f 3d 49 3e 9a 3c
       0.03460831 -0.037642367 0.034968264 0.018828528
0000e0 8a 99 64 bd de 19 5c bc e9 07 21 3d 5a 0a 37 bb
       -0.05581049 -0.013433902 0.039314184 -0.0027929754
0000f0 47 a7 9d 3c 76 92 48 3d b0 b6 42 3c b0 29 64 3d
       0.019244803 0.0489678 0.011884376 0.05570382
000100 d1 66 39 3d 6d 1f 41 bd 3e 6b 9d 3d 0a e9 36 bd
       0.04526407 -0.04714911 0.076864704 -0.044655837
000110 69 eb 85 3d fc bc 27 bd cb 13 6a bd 9f 50 93 3a
       0.065390415 -0.040951714 -0.057147782 0.0011239237
000120 9e 2d 0b 3d 1c de 43 3d 0b fa fa 3c 09 17 4e bc
       0.03397905 0.047819242 0.030636808 -0.012578734
000130 f8 34 09 3c cf c2 87 3d 29 46 8e 3d e0 be a0 3d
       0.008374445 0.06628954 0.06946976 0.078489065
000140 16 28 6f 3d 83 01 24 3d 79 ca 49 bc 02 28 93 bc
       0.05838784 0.040040504 -0.01231634 -0.017963413
000150 f0 d3 66 3d 28 91 23 bd 81 bd 92 3d f6 ae a4 bc
       0.056354463 -0.039933354 0.07165051 -0.02010296
000160 4b c4 eb 3d 4d 61 54 3d 55 7e 50 3d dc e2 17 bd
       0.11512049 0.051850606 0.05090173 -0.037081584
000170 4a e0 16 bc 53 24 97 3d e3 d9 98 3d 25 13 20 bd
       -0.009208748 0.07379975 0.074634336 -0.039080758
000180 a5 db 15 bb 9f 85 2e 3d 83 c3 96 3d c5 b9 6a bb
       -0.0022866514 0.0426079 0.0736151 -0.0035816294
000190 ca d5 49 3d be 9a ec 3b b9 23 07 3d e7 18 7f 3c
       0.04927615 0.007220595 0.032993052 0.015569902
0001a0 1c 44 e2 3b c8 2b a9 3c 28 48 46 3c dc 50 d0 bb
       0.006905092 0.02065076 0.012102164 -0.0063572954
0001b0 22 29 b6 3b a1 ff 81 3d 47 9f fa 3d 5d 13 01 3c
       0.0055591026 0.063475855 0.12237411 0.007878152
0001c0 91 3d ba bc 1c f9 3f 3d cd 52 7b bc 4a d3 e7 3c
       -0.022734435 0.04686843 -0.015339565 0.028298993
0001d0 9e 80 d7 3c f7 13 5b 3d 99 2f 07 bd f9 e3 0d 3d
       0.026306447 0.053485837 -0.033004377 0.03464124
0001e0 50 bf b2 bb 1e 25 bc bc e8 82 30 bc 02 7b 09 bd
       -0.005454935 -0.022966918 -0.010773398 -0.033564575
0001f0 35 cb cf 3c ca 63 2b 3c 98 d4 9e 3c 02 5c 5a 3a
       0.025365451 0.010460803 0.019388482 0.000832975

layer_2.weight f4 [256, 128]
000000 59 f8 2c 3d 2f 84 04 3e 6c 14 87 3d 7c 15 1c bd
       0.04222903 0.12941049 0.06595692 -0.038106427
000010 ce 0e a3 3d fc 79 0b 3e 1a de be bc c7 62 fc bc
       0.07961808 0.13620752 -0.023299266 -0.03080882
000020 60 92 01 bd 61 e5 83 bd a1 61 db bc 67 31 02 3e
       -0.031633735 -0.06440235 -0.026779952 0.12714158
000030 ba 1d 02 3e 76 73 8c 3d 3c 60 dc 3d 74 22 28 3e
       0.12706652 0.0685796 0.10760543 0.16419393
000040 06 35 d5 bd a8 d9 b9 3d 1e 44 8a 3d 48 ee de 3d
       -0.10410504 0.09074718 0.067512736 0.10885292
000050 58 ed 16 bd 69 16 3b 3d 2b 07 b1 bd 50 a7 0d bd
       -0.036847442 0.04567567 -0.08643945 -0.03458339
000060 2b 87 17 bd 36 01 69 3d 99 15 b7 3d fa fc a7 bd
       -0.03699414 0.05688592 0.08939666 -0.08202548
000070 37 60 6b 3d 5f bf ba 3d 89 95 ac 3d ef 70 ad bd
       0.057464805 0.091185324 0.08426959 -0.08468806
000080 fd cd 2d 3c 08 a4 0a bd 1a df fc bc 70 71 27 bd
       0.010608193 -0.03384784 -0.030868102 -0.040879667
000090 43 a4 c6 bd 53 57 c5 3d 35 9a 43 ba b2 fd b5 bc
       -0.09699299 0.096357964 -0.00074616383 -0.022215698
0000a0 03 bd 93 3c 62 5b d2 3d 3e 59 be 3d c0 72 84 bc
       0.018034464 0.10271336 0.09294365 -0.016167998
0000b0 bd 60 df 3c a3 a8 84 bd 0d 5c 16 3d 6a 91 bf 3d
       0.027267808 -0.064774774 0.03670888 0.093539074
0000c0 3a 68 2d bc b8 9b ae ba 02 25 b6 bd eb 43 ee 3d
       -0.010583932 -0.0013321554 -0.088937774 0.11634048
0000d0 c1 3b 9c 3d 0e 9e da ba aa 53 7a bd 2c 81 b2 3d
       0.07628585 -0.0016679184 -0.061114945 0.08716044
0000e0 1c 17 9d bd c0 99 b5 bc fb e9 c4 3c 30 45 d8 3d
       -0.076704234 -0.02216804 0.024037352 0.105600715
0000f0 3c 8b dd 3d 02 57 b6 3d 83 7a aa 3c be df a6 3d
       0.108175725 0.08903314 0.020810371 0.08148144
000100 36 dc 0a 3e 3d 22 07 3b 8d a4 ff 3c 9e 03 6d bc
       0.13560566 0.0020619773 0.031206394 -0.014466194
000110 05 60 d3 3a 0e 69 14 bd 0c 49 dd bb 1c 04 34 bd
       0.0016126639 -0.036233 -0.0067530926 -0.04394923
000120 f7 91 de bd 19 23 ff 3c 6c 99 40 bc cc 43 70 3d
       -0.10867684 0.031144666 -0.011755329 0.058658406
000130 16 bb ba bd c7 65 a0 3d 86 26 44 bd 5e 14 9a 3d
       -0.09117715 0.078319125 -0.0478883 0.07523416
000140 e7 1c 13 bd 57 ea 16 3e 42 c1 e7 bd 70 f7 01 be
       -0.035916235 0.14737831 -0.11316158 -0.12692046
000150 2d b3 72 3d 41 10 86 bd 5e 8b 3a 3e 28 ac 44 3d
       0.059252907 -0.06546069 0.18217227 0.048015743
000160 14 78 17 3d 15 30 a3 3d c1 5b ca 3b 96 a4 a1 3c
       0.03697975 0.07968155 0.0061754887 0.019731801
000170 95 a6 88 bd 89 50 06 3d 57 14 ad 3d ad 4e 65 bd
       -0.06672398 0.032791648 0.08451145 -0.055983234
000180 79 48 71 bb 19 3f 0b 3d 07 7a 34 bd f9 f6 b8 3d
       -0.0036816879 0.03399572 -0.044061687 0.09031481
000190 e1 bf bd 3d a3 86 8e 3d eb 45 eb 3d 6a b5 5c bd
       0.092651136 0.06959274 0.11487945 -0.053883947
0001a0 de 72 70 3d 58 3f b8 3c 58 d1 95 bd 86 6f dc 3d
       0.058703296 0.022491142 -0.0731532 0.10763459
0001b0 ba 2b 9f 3d 28 31 ae bc be 92 c7 3d 0a 63 a3 bd
       0.07772012 -0.021263674 0.09744786 -0.079778746
0001c0 fe 5e 23 3d ea 1e f3 bd 9a c9 a4 bd 73 ef e5 bd
       0.039885513 -0.11871131 -0.08046265 -0.11227312
0001d0 ac bf 30 bd 7b 29 6d bd 0e 09 9f bd ad e9 de bc
       -0.043151543 -0.057900887 -0.07765399 -0.027211035
0001e0 91 a7 3b 3c c7 81 39 bc 43 37 9c bd e7 2a 52 3d
       0.011453525 -0.011322445 -0.07627728 0.051310446
0001f0 56 3b 4f 3d bf 1e 33 bd 33 f0 ad 3c d5 91 3d 3d
       0.050593697 -0.043730494 0.0212327 0.046281654
000200 e7 15 ca bd cc 8a 51 3e 4f 36 cf bd 15 32 77 bd
       -0.09867459 0.20463103 -0.101177804 -0.060350496
000210 84 13 0c 3e a4 35 c4 3c 75 fb bb 3d 9e c1 b2 bd
       0.1367932 0.02395136 0.09178821 -0.08728336
000220 d6 1e f1 bc be 59 89 bd 3b 28 d5 bd 26 eb a7 3d
       -0.029433649 -0.0670657 -0.10408064 0.08199148
000230 a4 1b d8 bb 68 6f f2 bc ca b1 cc 3d 7f 39 44 3e
       -0.006595092 -0.029594138 0.09994848 0.19162558
000240 3c ae c6 3c b7 5e 32 3d 4c 69 aa bd 88 14 10 bd
       0.024253003 0.04354736 -0.08320865 -0.03517583
000250 2e d1 86 3d fb 43 ae bd de 1f 6d bd 5f a4 2b bc
       0.065828666 -0.0850906 -0.05789172 -0.010476201
000260 64 3d 7f 3d c8 8c 94 bd 59 61 40 bb 69 5a 95 bd
       0.062314406 -0.072534144 -0.0029354899 -0.07292635
000270 e9 96 b2 3c b8 59 be bd 02 99 c6 bc 5f df d1 ba
       0.021800475 -0.09294456 -0.024242882 -0.0016012004
000280 68 f1 d4 bc 70 f2 a3 3d 5d e8 7b bd a9 15 80 bc
       -0.025994018 0.08005226 -0.061500896 -0.015635328
000290 43 68 2a 3d 63 b6 17 3d 86 7b de 3b ad dc 24 bd
       0.041603338 0.037039172 0.0067896275 -0.040249515
0002a0 fe a8 45 3d cc 73 8f 3d 36 ba 22 3d de 62 e6 3d
       0.048256867 0.070045084 0.039728366 0.11249326
0002b0 70 ba 60 bb 9a 38 91 bd 19 3f 12 3d c0 bb ab 3d
       -0.0034290813 -0.07090874 0.035704706 0.0838542
0002c0 04 6c 81 3d 92 d4 03 3d dd 07 3c 3d 43 4f a8 bb
       0.063194305 0.032185145 0.045905937 -0.005136402
0002d0 1d f4 13 3e d7 41 72 bd 16 62 c9 bc a7 97 83 3d
       0.1444859 -0.05914482 -0.024582904 0.0642541
0002e0 99 3c 7c 3d ea 8b 9e b9 da 91 f5 bb c0 b5 ec 3d
       0.061581228 -0.00030240352 -0.0074941935 0.115581036
0002f0 2b de 6e 3c ce b4 36 bd 73 9a 9d bd 11 95 17 3e
       0.014579336 -0.044606023 -0.076954745 0.14802958
000300 ea 80 28 3d 01 1c 8c 3c 77 5c be 3d 56 45 a7 3d
       0.041138567 0.017103197 0.0929498 0.08167522
000310 e6 2b ac bd e2 b5 b7 bc 31 68 b0 3c af b4 27 bd
       -0.084068105 -0.022425596 0.021534057 -0.040943798
000320 b1 d4 9c bd 68 e0 56 bd b8 dd de 3c 49 fc ca 3c
       -0.07657755 -0.052460104 0.027205333 0.024778502
000330 bd 37 1c 3d 32 e0 d4 3d 97 9a f0 3d 94 89 d6 3d
       0.038139094 0.10394324 0.11748236 0.1047546
000340 46 d5 28 3d 90 c0 91 3d d8 a4 01 be 17 4b a6 bd
       0.04121902 0.071168065 -0.12660539 -0.08119791
000350 f2 a0 c7 3d ff 97 a0 3d 4e 2c 03 3e 5d 66 a2 bd
       0.09747495 0.07841491 0.1280987 -0.079296805
000360 21 a8 74 3d 35 14 c3 3d 3a 24 f0 bc 7d f0 ef bd
       0.059730653 0.095253386 -0.02931415 -0.117157914
000370 1d c3 25 bc 37 09 c3 3d 9b 28 a6 bc a9 f4 83 bd
       -0.010117319 0.09523242 -0.020283034 -0.064431496
000380 a0 5d 34 bc f8 e8 96 3d dc 9e cc 3d 85 7d 95 bb
       -0.01100865 0.07368654 0.099912375 -0.0045620822
000390 6e 68 cd 3d 43 18 bf bd 30 bc 3c bd 1f f3 81 bd
       0.10029684 -0.093307994 -0.046077907 -0.063452
0003a0 e3 d7 c0 3c 09 d6 86 3d 43 58 f9 bd d0 e5 1c 3d
       0.023540443 0.06583793 -0.12175038 0.038305104
0003b0 08 74 82 3d a6 fd b1 3b 04 6a 18 3e 31 c0 ab bd
       0.063697875 0.0054318486 0.14884192 -0.08386267
0003c0 07 71 21 3d 67 28 0f bd 80 4a 65 bc 30 f3 fb bd
       0.039414432 -0.03495064 -0.013994813 -0.12302244
0003d0 e4 b6 84 3d fe 0b b9 3d 5e bf 4c bd 01 c2 ac 3d
       0.06480196 0.090354905 -0.04998719 0.08435441
0003e0 cf 94 9a 3d 2e fc 53 bd 97 0d a0 3d d8 fa 7e bd
       0.07547914 -0.05175417 0.07815092 -0.062250942
0003f0 f2 80 ab bc 46 3b 24 bd 77 69 f9 3d 2a a8 66 bd
       -0.02093551 -0.04009559 0.12178319 -0.056312717

layer_2.bias f4 [256]
000000 eb fc aa 3d 3a 5e da 3d b4 e1 da bc 04 7f e6 bc
       0.083490215 0.106625035 -0.026718952 -0.028136738
000010 80 05 99 3b b8 bf a7 3d 0c f9 31 bd 39 b3 84 bd
       0.004669845 0.08190864 -0.0434504 -0.064794965
000020 6c 22 a3 bc 3b a6 9f 3d 32 f7 41 bd 46 78 9f bd
       -0.019913875 0.07795378 -0.047354884 -0.07786612
000030 66 44 9d 3b 5d 58 bb bc 62 46 ea 3c 6f 04 24 bc
       0.0047994135 -0.022869283 0.028598014 -0.010010823
000040 31 79 7c bd f1 e8 25 bd e3 c6 90 3d 11 66 c5 3d
       -0.061639015 -0.040505353 0.07069185 0.09638608
000050 28 e9 31 3d 32 d8 02 bd e4 e1 af 3d 32 15 57 3d
       0.043435246 -0.03194446 0.08588007 0.052510448
000060 0e d9 cb 3d 6d e8 84 3d d1 ab a8 bd de c5 52 3d
       0.09953509 0.06489644 -0.082358964 0.051458232
000070 47 48 e2 3d 74 40 a6 bc ce 18 22 bd ca ed 94 3d
       0.11048942 -0.020294406 -0.039574437 0.07271917
000080 17 c1 d6 3d fe b3 f9 3d 4d f9 8e bd 41 b1 21 3d
       0.10486048 0.12192534 -0.06981144 0.039475683
000090 92 20 ba bd 75 1b 18 bd 58 a0 2a bd 39 f2 9a 3d
       -0.090882435 -0.03713556 -0.041656822 0.075657316
0000a0 ce 54 3f bc a4 f5 22 bd d5 fa 25 3d 00 a7 7c bd
       -0.011677934 -0.039785042 0.040522415 -0.0616827
0000b0 9c a6 d1 bd 9c 4a a4 bd 73 d2 98 bc 2f 6d 04 bc
       -0.10236856 -0.08022043 -0.018655038 -0.008082672
0000c0 6d 6b fe ba 35 d7 fd 3c 34 7c 9e 3d d1 e8 a3 3d
       -0.0019410677 0.030986408 0.077385336 0.080033906
0000d0 ca 93 c2 3d af ce 0a 3d a3 a0 23 bd 2a 31 00 3e
       0.09500845 0.033888515 -0.039948117 0.12518755
0000e0 9c d2 12 bd 51 1b 3b 3d 93 b2 27 3d 74 be fb 3d
       -0.035845384 0.045680348 0.040941786 0.122921854
0000f0 0d c9 9a 3d 9a ff 83 3c 63 11 c9 bc 5b 83 d2 bc
       0.07557879 0.016113091 -0.024544423 -0.0256974
000100 92 eb dd 3d 07 fc 83 3b 96 8c 85 3d 92 ee e4 3d
       0.10835947 0.0040278467 0.06520955 0.11178316
000110 0a 1a 82 bd 6e 1a 14 3d c5 7c 17 3d ea 3e 06 bc
       -0.06352623 0.036158018 0.036984224 -0.008193711
000120 f9 90 77 bd 4e 8f 0b bc a7 60 c4 3b 66 f2 c5 3d
       -0.06044099 -0.008518053 0.005992967 0.096653745
000130 ff 78 24 3c 1e 57 d2 3d 87 79 b5 3d 5a 85 c9 3d
       0.010038613 0.102705225 0.0886107 0.09839888
000140 6c a4 08 3e 31 03 62 bd 74 48 34 3d 0a 2a 7a 3d
       0.13343972 -0.055178825 0.04401441 0.061075248
000150 08 3d 9b bc 19 6c 57 bd 59 8e cc 3d 91 3b fe 3d
       -0.01895 -0.052593324 0.09988088 0.12413705
000160 94 df 3f 3c b6 de 8a bc 8d 7f 07 3d c4 42 1a bd
       0.01171102 -0.0169519 0.033080626 -0.03766133
000170 74 72 7f 3d ca 39 cc bd c8 d5 c3 bc 32 b7 cc 3d
       0.06236501 -0.0997196 -0.02390565 0.09995879
000180 64 94 0c bd 9a a9 8e 3d 55 68 0b bc e8 50 26 bd
       -0.034321204 0.06965943 -0.008508761 -0.040604502
000190 32 e5 d9 3b 5c a3 4b bc 53 5e 6f bd 09 f8 4a 3d
       0.0066496367 -0.012429085 -0.058439564 0.04955295
0001a0 9c 18 61 3b 55 57 be 3c 21 94 c6 3d 5b 0a f8 3d
       0.0034346944 0.023235003 0.09696222 0.1211135
0001b0 a9 bc b1 bd 81 56 2d 3d 7a bb 19 3e 8b 9d c4 3d
       -0.08678562 0.042318825 0.15012923 0.096003614
0001c0 f0 78 44 3b a9 f5 21 bd 5f 60 f0 3c f9 49 84 3d
       0.002997931 -0.03954092 0.029342828 0.06459422
0001d0 ae cb fb bc 23 13 4e bd bc b3 c8 bd 22 96 98 3d
       -0.03073677 -0.05031122 -0.097999066 0.074505106
0001e0 fc ea bb 3d 19 01 dc 3c bd 26 2a bd 84 29 f7 3d
       0.09175679 0.026855992 -0.04154085 0.12068465
0001f0 cd b8 bc bd ca 96 1a bd 59 38 9b 3c 6c ce 44 bb
       -0.092149355 -0.03774146 0.018947767 -0.0030030264
000200 ca 36 59 3d 04 f7 d8 bb 29 89 83 3d df 68 0f 3d
       0.053030767 -0.0066212434 0.064226456 0.035012122
000210 f5 67 42 3d 20 f8 f8 bc e0 ba ac 3c 76 23 a6 bd
       0.047462422 -0.030391753 0.021085203 -0.081122324
000220 c0 44 29 bc 69 c7 b6 bd 34 6f a0 3d 2e d7 4f bd
       -0.010331333 -0.08924753 0.0783371 -0.05074232
000230 58 0d 38 3d f8 b6 2b 3c d2 fd af 3d 3f 24 14 bd
       0.0449346 0.010480635 0.08593334 -0.03616738
000240 6a 0e 69 3d 2e 81 b3 bc 3b 6c 0f 3d 1c 41 53 3d
       0.056898512 -0.021912184 0.035015326 0.051575765
000250 f2 b5 db 3d e0 d9 6d 3c a1 83 5f bd ef c2 34 bd
       0.10728063 0.0145172775 -0.05456889 -0.044131216
000260 99 67 6c 3d f7 90 86 bc 97 e9 96 bd 4e 29 46 3d
       0.057715986 -0.016426546 -0.073687725 0.048379235
000270 81 0a 97 bd b5 51 8c 3d 85 75 10 3d 78 09 de bd
       -0.0737505 0.06851522 0.035268325 -0.1084165
000280 14 95 d6 3d d1 97 9e 3d ba 89 f8 3c 2c 6a 9b 3d
       0.10477653 0.077438004 0.03033911 0.0758861
000290 38 bb 84 3d 38 61 80 bb f7 51 49 3c 2d 83 45 bc
       0.06481022 -0.0039178394 0.012287608 -0.0120552005
0002a0 36 19 cd bc c2 40 6b 3c a1 5a 76 3d 7a 51 b8 3d
       -0.025036436 0.014358701 0.060145024 0.089999154
0002b0 f2 8a 2c 3b d8 4f 55 bd d2 50 e4 3d 4b b1 9d 3d
       0.0026327935 -0.052078098 0.11148228 0.076998316
0002c0 fa 48 10 3e 56 d1 4e 3b 06 b2 cc 3c 91 01 11 bc
       0.14090338 0.003155788 0.024987232 -0.008850471
0002d0 65 9e fb 3d 0d 18 c4 3d 99 bc 44 3d f9 a0 8a 3d
       0.12286071 0.095749 0.048031423 0.06768984
0002e0 48 1d 62 3c 51 f8 e9 3d 74 87 17 bd b8 f2 a6 3d
       0.0138009265 0.11424316 -0.036994413 0.08151764
0002f0 38 85 c1 bd 3c 56 b8 3d 8c 6e 1e 3d 56 fb d9 bc
       -0.094492376 0.09000823 0.038679644 -0.026609104
000300 10 0f fb 3c 0f 21 99 bd 10 41 80 3d 91 73 93 bb
       0.03064683 -0.074770086 0.0626241 -0.0044998606
000310 e8 c1 aa bc e9 88 87 3c e0 48 02 bd 99 33 82 3c
       -0.020844415 0.016544776 -0.03180778 0.015893744
000320 d7 5c 04 3d 5b 05 ac bc 3d 6b 8f 3d a6 1a 98 bc
       0.0323151 -0.020998647 0.07002876 -0.018567394
000330 56 69 c5 bd df 1c ec 3c 7a af 56 39 6f 8f 79 bd
       -0.09639232 0.02882236 0.00020474 -0.060927805
000340 fd f8 91 bc 0f e1 0c 3d f8 d4 0c 3d fc 15 81 b7
       -0.017818922 0.03439432 0.03438279 -1.5388236e-05
000350 78 5a 8d 3d 76 fa b3 bd 0d 24 dc b9 8f ff 9d 3d
       0.06902021 -0.08788006 -0.0004198853 0.077147596
000360 af 5e b5 bc 5f e2 bc bc 1c e3 d9 bc d3 08 87 3d
       -0.022139875 -0.02305716 -0.026597552 0.0659348
000370 57 ab 38 3c b9 b1 10 3d 74 5a 2a bd 96 d1 fe bc
       0.011271319 0.03532574 -0.04159017 -0.031105798
000380 49 71 5f bd d2 7f 2d bc 1d 54 c5 3c 37 57 7d bc
       -0.054551397 -0.010589557 0.02408796 -0.015462688
000390 99 41 11 3d e2 49 07 bd 96 6b 19 bd a0 8f 13 bd
       0.03546295 -0.033029445 -0.037456118 -0.036025643
0003a0 cf ec fb 3d b7 56 47 bc 8d 66 1a 3e 17 c0 08 bd
       0.12301027 -0.0121666705 0.15078183 -0.033386316
0003b0 dd 35 b7 3c 8b 88 72 bd 3d a5 a4 3d 78 55 2a bd
       0.022364551 -0.05921225 0.08039329 -0.041585416
0003c0 ce 01 30 3c 26 89 24 3d a8 7d 4c bd 77 ed 9d b9
       0.010742618 0.040169857 -0.049924523 -0.000301223
0003d0 42 bc 21 3d c1 5c 71 3d c5 92 78 bc b5 e9 46 bc
       0.039486177 0.058926348 -0.015171711 -0.012140681
0003e0 ba 4a 0d bd e0 1b e6 ba d0 09 c9 bd 95 9e ed bc
       -0.034495093 -0.0017555915 -0.09816325 -0.029006282
0003f0 36 88 1e bd e6 86 89 3c b8 39 87 3d 20 78 a4 bd
       -0.03870412 0.016787957 0.06602806 -0.080307245

layer_3.weight f4 [10, 256]
000000 19 c5 86 3d e3 ab 89 3d 7d 3c dc bc cc f5 91 bd
       0.06580562 0.06722238 -0.026884312 -0.0712696
000010 fb 2b d0 3c d2 59 ea bc 5e 6c 4b 3d 0f 34 7b bc
       0.025411597 -0.028607283 0.049663894 -0.015332236
000020 fc 52 03 3c b9 09 17 bc 7e b7 66 bc 9d ac 65 bd
       0.0080153905 -0.009218627 -0.014081834 -0.05607282
000030 3e 2c af bc a7 81 95 3c 8e fe ad 3d 64 e6 46 bd
       -0.021383401 0.0182503 0.08495818 -0.04855956
000040 b4 f6 6e bd 3a b1 25 bd ef c3 33 3d ca a7 cc bd
       -0.058340743 -0.04045222 0.04388803 -0.09992941
000050 60 31 8b bd cc 62 b8 bd bd 39 9a bd ac 2b 09 bd
       -0.06796527 -0.09003219 -0.07530544 -0.033488914
000060 1b ee 81 bb eb a7 67 bc 2f 4b 39 bc f4 35 4d 3c
       -0.003965152 -0.014139156 -0.011309429 0.01252507
000070 80 12 ab bd c4 88 18 3d c1 8f 03 bd 61 55 20 bd
       -0.08353138 0.037239805 -0.032119516 -0.039143924
000080 2b 61 44 3d 08 07 96 3d b2 3a 04 be 42 57 81 bd
       0.04794423 0.0732556 -0.12913015 -0.06315471
000090 97 f8 c4 bc 31 d0 7c bd df 25 5d bc 08 54 e2 bd
       -0.024044318 -0.061721984 -0.013497799 -0.11051184
0000a0 17 19 b5 3d ce ac 15 bc 72 fb f6 3c 45 24 00 3d
       0.08842676 -0.009135438 0.030149195 0.03128459
0000b0 c3 f1 54 3d e6 b3 74 bc 5b 4f 82 3d 23 0c 20 bd
       0.051988374 -0.014935469 0.06362792 -0.039074074
0000c0 b0 97 b9 3c c4 18 55 bb 5a b1 68 bd b8 9d 0d 3d
       0.022655338 -0.0032515982 -0.05680976 0.03457424
0000d0 e4 07 0a be c5 7d c4 bd 1a 3f 74 bd 84 da 04 be
       -0.13479573 -0.09594301 -0.05963049 -0.12973982
0000e0 eb e2 e7 bd 9e a4 8b bd 2a 52 0c be fa c5 14 be
       -0.11322578 -0.068185076 -0.13703218 -0.14528647
0000f0 74 53 3c 3d a3 39 79 bd 2b fd de 3d 17 87 72 bd
       0.045978025 -0.060845982 0.10888132 -0.059210863
000100 45 53 09 3c c4 a6 8c bd cc f5 a5 3d 0e e2 0a be
       0.008381669 -0.068677455 0.08103523 -0.13562796
000110 c6 11 a2 3c 68 98 b6 3a fd 02 45 bd 80 04 7c 3d
       0.019783866 0.0013930919 -0.048098553 0.06152773
000120 23 5c 4e 3a 30 6f 67 3d 36 77 65 bd 57 d5 9a 3d
       0.0007872006 0.05650252 -0.05602189 0.075602226
000130 bf e9 a5 bc a8 63 e6 bd f1 e3 0e be dc f8 e2 bd
       -0.02025306 -0.11249477 -0.1395414 -0.110826224
000140 b8 e7 f6 bd 80 3c 88 3b 22 5b 0e 3d b2 45 46 bd
       -0.120559156 0.004157603 0.03475488 -0.04840631
000150 b4 c8 99 bd 4e 73 8c 3c 55 0c 9a bc b7 d9 a0 bc
       -0.07508984 0.017144825 -0.018804708 -0.019635065
000160 16 7c d6 3c 81 1f af bb 13 56 9b 3d fa 42 08 3d
       0.026182216 -0.0053443317 0.07584777 0.033267
000170 8d 83 c8 bc 94 e1 00 3b 58 57 c2 3d e6 1b a0 bd
       -0.02447679 0.0019665705 0.09489316 -0.07817821
000180 6d d0 d3 3d d3 f1 36 3d 01 b9 eb 3b cb b1 98 bb
       0.103424884 0.044664215 0.007193685 -0.0046598664
000190 c7 dc ce bc c3 91 0e 3d e5 2d 3d 3b d0 92 07 be
       -0.02525176 0.034806978 0.0028866467 -0.13239598
0001a0 85 3c 7a bd e1 33 8f bd ce ef ac 3d d7 e4 d0 bd
       -0.061092872 -0.06992317 0.084441766 -0.10199898
0001b0 55 0d db 3b e2 13 e1 3c 13 90 bb bd 51 44 44 bc
       0.006684939 0.027475301 -0.09158339 -0.0119791785
0001c0 41 0c 19 3d b0 7d bb 3d 92 1e 5f 3d 81 05 09 bd
       0.0373652 0.09154832 0.054472513 -0.033452515
0001d0 36 53 6b 3d 19 66 f1 3b bd 27 5d bd 35 d7 11 be
       0.057452403 0.0073669073 -0.053992976 -0.14242251
0001e0 16 9f 12 bd f6 5b ad 3d f2 c5 0c bd 57 9c 8a bc
       -0.035796247 0.08464806 -0.034368463 -0.016920252
0001f0 10 a6 e7 3b 8f d5 33 bd 27 ed 59 bc 95 9e e2 bd
       0.0070693567 -0.043904837 -0.01330117 -0.11065403
000200 50 a8 7b 3a 91 ae 34 3b 97 5e c3 3a 45 4a e8 3c
       0.00095999707 0.002756987 0.0014905509 0.028355727
000210 80 73 c7 3d 8f 23 83 bd 65 60 a1 bd 7e fc 86 3d
       0.09738827 -0.06403267 -0.07879714 0.06591128
000220 09 d2 8f bd 4d 66 29 bc 1d 4f ef bd 6f a1 3f bc
       -0.07022483 -0.010339332 -0.116850115 -0.011696204
000230 b2 6b 23 3d e1 e7 31 bd ec 15 8d 3d 3f 2d f4 3b
       0.039897628 -0.043434028 0.06888947 0.007451683
000240 e2 3f 19 bd dc 43 96 bd 97 3a 6a 3d 45 29 bd 3d
       -0.03741444 -0.07337162 0.057184782 0.09236387
000250 30 c0 00 be 4c cf 01 be 8a 0d bd 3d c9 0f 2d 3c
       -0.12573314 -0.12676734 0.09231098 0.0105628455
000260 2b 68 b8 3d e6 59 80 3c d2 cc 6f 3d 05 ac 1a 3d
       0.090042435 0.015667867 0.05854494 0.037761707
000270 8f 93 62 3c dc 2b 1b bd bd fd d8 3d c2 6c 7b 3c
       0.013829126 -0.037883624 0.10595272 0.015345754
000280 4b 37 f6 bd 02 52 f0 3c 9d 8d c0 bb db 24 91 3d
       -0.12022265 0.02933598 -0.0058762566 0.07087108
000290 fa 30 82 bd a6 93 e6 bd 82 1e a4 3d c7 20 ba bd
       -0.06356998 -0.112586305 0.080136314 -0.09088283
0002a0 83 8e 54 3d 13 61 39 3d 2c 39 98 bd ee 2d 0e bd
       0.051893722 0.045258593 -0.0743278 -0.03471177
0002b0 7c e9 10 be fc 00 a5 3d 6b 39 97 bd 58 d7 e6 3c
       -0.14151567 0.080568284 -0.073839985 0.028178856
0002c0 62 cf 0e be 3e 16 b3 bd d3 69 4a 37 73 1f 51 3d
       -0.13946298 -0.08744477 1.2064777e-05 0.051055383
0002d0 65 79 96 bd 94 5a e1 bc ff 2d 23 bc 8c 12 f9 bc
       -0.07347373 -0.027509011 -0.009959697 -0.030404352
0002e0 49 b6 d5 bc e2 d6 90 bd 55 ce 68 bd c5 b7 c7 3c
       -0.026087897 -0.07072236 -0.0568374 0.02437962
0002f0 39 4c 02 bd 70 49 d1 bd 0f 98 c9 3d bc 7c a6 3d
       -0.031810973 -0.10219085 0.09843456 0.0812926
000300 de e4 fb bd 4c cb 8e bd 40 8d 38 3d d6 11 60 bd
       -0.12299512 -0.069723696 0.04505658 -0.05470451
000310 16 95 0d bd db e1 03 bd ef cd 5b be 1a 9a 08 be
       -0.034566008 -0.032197814 -0.21465276 -0.13340035
000320 ad c3 b2 bd db 15 c6 bd 99 db 75 bd cc f1 ed bc
       -0.087287284 -0.09672137 -0.060023878 -0.029045962
000330 3c 42 be 3d e5 69 de bc 79 ca 86 3d fc 07 1e 3d
       0.09289977 -0.027150104 0.06581587 0.038581833
000340 e5 a1 91 bc 68 37 4e bd a6 df 27 bb 5d d3 84 bd
       -0.017777393 -0.05034581 -0.0025615483 -0.06485627
000350 1c 3e 73 3c 35 59 69 bd d6 8a 8a 3d fc 80 8e 3d
       0.014846351 -0.05696984 0.06764762 0.069581956
000360 1b a7 45 bd 89 d2 a3 bc b4 a0 8f bd 97 47 a0 3d
       -0.048255067 -0.019997852 -0.070130736 0.07826155
000370 af 39 e4 bd 60 fc 26 3d 97 ee d3 bc ea 06 c6 bb
       -0.11143815 0.040768027 -0.025870604 -0.0060433047
000380 f8 aa bd 3d a6 48 87 3b e3 44 66 bd d1 f8 a7 bd
       0.09261125 0.0041285334 -0.05621804 -0.08201755
000390 37 4c a2 bd 5b 26 89 3c 77 35 60 bd 17 55 fe 3d
       -0.07924693 0.016741922 -0.054738488 0.12418573
0003a0 2a 61 b2 bd 4f fe dc bd 14 cb 98 bc 86 4e fa bd
       -0.08709939 -0.10790693 -0.018651523 -0.122220084
0003b0 b3 c7 ae bd b1 77 26 bd 1d 7d 69 bd 3b 9f 5d bc
       -0.08534183 -0.04064149 -0.057004083 -0.013526733
0003c0 70 9f a4 3d 1b ec 7c 3b 07 23 dd bd b4 e1 54 bd
       0.08038223 0.0038592878 -0.107976966 -0.05197306
0003d0 5a 47 c2 bb b8 2d 43 bb ce db eb bd 2a 75 dc bc
       -0.005928916 -0.002978189 -0.11516534 -0.026911337
0003e0 9c a0 a3 bd 04 b0 74 3d 60 67 1b bd 0c 40 2a 3d
       -0.07989618 0.059738174 -0.037940383 0.041564986
0003f0 ae 22 ec 3c f6 59 fd bb 3b 75 a3 bd c1 10 01 bd
       0.02882513 -0.0077316714 -0.07981344 -0.03151012

layer_3.bias f4 [10]
000000 2a f0 82 bd 76 1c 82 39 78 f5 59 3d 21 8d 3c 3d
       -0.06393464 0.00024816737 0.053212613 0.04603303
000010 e7 c8 84 3d 86 b7 2a 3c 33 79 b9 3c fc 5f 39 3d
       0.064836316 0.010419732 0.0226408 0.045257553
000020 51 7f 9c bc e3 b8 84 bd
       -0.019103678 -0.06480577
