experiments/checkpoints/plasticy_mnist_model.ckpt (torch, 179531 bytes, 18 tensors)

layer_1.weight f4 [16, 784]
0.031535227 0.00854053 -0.0134602655 0.011388987 -0.0045997966 0.014502797 -0.00859439 -0.004212536
0.0023642369 0.021799937 -0.0047087204 -0.017810192 0.03233404 -0.017654616 -0.00519228 -0.016790694
-0.007692188 -0.018111063 -0.031587314 -0.005429702 -0.011220405 0.012856819 -0.008909527 -0.032941706
0.028472569 0.033613335 -0.028447524 0.024226781 -7.188693e-05 -0.002606038 -0.0123643745 0.0270021
-0.0125286225 -0.020917125 -0.034268633 0.0376111 0.0068634376 -0.02004384 0.06376526 -0.02594033
0.0121284695 -0.016064998 0.09660545 0.005676649 -0.084756956 -0.047368865 0.0685291 0.08572972
0.013377625 0.06304679 0.020139283 -0.0033848546 0.016828243 0.002635412 -0.025745947 0.0068444386
0.026535362 -0.011331087 0.08002061 0.04740693 0.028147021 -0.009221695 -0.008877299 -0.020044448
0.09049543 -0.03158503 -0.08352446 -0.08757456 -0.15889114 -0.14443831 0.011730368 0.08635437
0.15752618 0.12320993 0.07026543 0.13132755 0.13306034 0.16273975 0.15945782 0.22727135
0.07998876 0.031049468 -0.03199222 0.03426325 -0.013759315 -0.01093919 0.100139596 0.1219907
0.09126104 -0.024153894 0.0006438834 0.063187666 0.060778193 -0.04592215 -0.15203167 -0.19206189
-0.20156772 -0.083241545 -0.0616992 0.0058527994 -0.0047667692 0.034801014 0.048411194 0.12131944
0.061036754 0.08855025 0.026911194 0.05581643 -0.03304892 -0.07816682 -0.113540046 -0.013421055
0.03134392 0.029062537 0.11321208 0.084288955 -0.023186775 -0.07201473 -0.015797 0.035822816
-0.02036746 -0.139739 -0.14363109 -0.11696947 -0.079133384 0.065930024 -0.023915663 -0.05542717
-0.030613428 -0.010446809 0.0016625022 0.058968965 0.04601502 0.0685943 0.00078146526 -0.022667838
-0.08894107 -0.12279851 -0.14639594 -0.022754466 -0.030362168 0.007392131 0.14167511 0.021992128
-0.047406152 -0.061522245 -0.09401391 -0.058167346 -0.039834887 -0.21868506 -0.14653647 -0.06683186
-0.052097682 0.0095104575 0.01569842 0.12134456 0.042015523 -0.01972567 0.03190623 -0.030409522
-0.045716405 -0.05390403 -0.0063600857 -0.031409375 -0.099327296 -0.1376717 -0.17862661 -0.028338706
0.019490998 0.014838759 -0.011804179 -0.035049878 0.025347857 0.058120746 -0.06598406 -0.09684815
-0.11772995 -0.21744795 -0.15534224 -0.057440206 -0.06085693 -0.062393725 0.086065635 0.13354044
0.030464496 -0.03314487 -0.059729274 -0.15161502 -0.16278984 -0.13990659 -0.00047101444 -0.07397038
-0.052793432 -0.15024059 -0.14502773 -0.13036352 -0.020283211 0.022738066 -0.08189428 0.01634493
0.056822404 0.09581853 -0.060328413 -0.059999082 -0.07940183 -0.16001599 -0.15697685 -0.07740895
-0.07180032 0.021148063 0.12816781 0.13697362 -0.00946463 -0.022147425 -0.082092546 -0.16304524
-0.06879214 -0.10684754 0.050139945 -0.0007993646 -0.107374676 -0.20151658 -0.06723419 -0.06338468
-0.028320603 -0.048561603 -0.04209578 -0.033026464 -0.054690044 0.049575802 0.05295988 0.083007246
0.02228631 -0.17465611 -0.21350306 -0.13542046 -0.09257355 0.11447042 0.20944284 0.118562974
-0.054683506 -0.15125412 -0.23295347 -0.1388762 -0.109795935 -0.07709593 -0.09383093 -0.14589234
-0.12204759 -0.21690807 -0.08521058 -0.08560381 0.028096434 -0.011757931 -0.09104663 -0.121725425
00000000: 152b 013d 94ed 0b3c 7288 5cbc e098 3a3c
00000010: e4b9 96bb 249d 6d3c 7ccf 0cbc 5009 8abb
00000020: 50f1 1a3b c895 b23c 9c4b 9abb aee6 91bc
00000030: b370 043d 6aa0 90bc 0024 aabb a38c 89bc
00000040: c00e fcbb a75d 94bc b361 01bd a4eb b1bb
00000050: cad5 37bc 68a5 523c 44f9 11bc e2ed 06bd
00000060: 4e3f e93c 23ae 093d c80a e9bc 3e77 c63c
00000070: 00c2 96b8 10ca 2abb f293 4abc 8233 dd3c
00000080: da44 4dbc 645a abbc 445d 0cbd 190e 1a3d
00000090: b0e6 e03b fb32 a4bc 5c97 823d d180 d4bc
000000a0: 7db6 463c be9a 83bc 14d9 c53d 2f03 ba3b
000000b0: 0e95 adbd db05 42bd fc58 8c3d 1093 af3d
000000c0: d32d 5b3c ad1e 813d 23fb a43c 70d4 5dbb
000000d0: 62db 893c e0b6 2c3b 2ae9 d2bc 5047 e03b
000000e0: b060 d93c 06a6 39bc d8e1 a33d c52d 423d
000000f0: 9594 e63c 9816 17bc 1772 11bc 4134 a4bc
00000100: ab55 b93d 4e5f 01bd df0e abbd 4a5a b3bd
00000110: 5cb4 22be a3e7 13be bb30 403c 8fda b03d
00000120: 8b4e 213e 7d55 fc3d 52e7 8f3d bb7a 063e
00000130: f840 083e 40a5 263e e948 233e d2b9 683e
00000140: 26d1 a33d 745b fe3c 460a 03bd 9f57 0c3d
00000150: c06e 61bc 4a3a 33bc fd15 cd3d 43d6 f93d
00000160: 11e7 ba3d 63de c5bc 49ca 283a 8968 813d
00000170: 8ef2 783d dd18 3cbd 31ae 1bbe dfab 44be
00000180: c567 4ebe 8b7a aabd 4db8 7cbd d7c8 bf3b
00000190: 8f32 9cbb 828b 0e3d d14a 463d 5476 f83d
000001a0: ad01 7a3d d559 b53d dd74 dc3c c59f 643d
000001b0: 4e5e 07bd ed15 a0bd af87 e8bd fce3 5bbc
000001c0: 7b62 003d 8f14 ee3c bcdb e73d b09f ac3d
000001d0: 31f2 bdbc 757c 93bd b668 81bc f2ba 123d
000001e0: a9d9 a6bc be17 0fbe 0714 13be b18d efbd
000001f0: af10 a2bd 5206 873d c8ea c3bc 9a07 63bd
00000200: 03c9 fabc 1829 2bbc 51e8 d93a 7189 713d
00000210: 3f7a 3c3d 2b7b 8c3d 3fdb 4c3a e7b1 b9bc
00000220: bc26 b6bd c97d fbbd d1e8 15be 9367 babc
00000230: 15ba f8bc b039 f23b 4813 113e d628 b43c
00000240: f42c 42bd c0fe 7bbd 5d8a c0bd e240 6ebd
00000250: e829 23bd faee 5fbe a80d 16be 24df 88bd
00000260: 6164 55bd c0d1 1b3c f999 803c 7f83 f83d
00000270: 7818 2c3d ba97 a1bc 1bb0 023d 641d f9bc
00000280: 2041 3bbd 79ca 5cbd 4468 d0bb 1ea7 00bd
00000290: 1c6c cbbd cff9 0cbe e5e9 36be 9326 e8bc
000002a0: 96ab 9f3c 441e 733c 5166 41bc 7690 0fbd
000002b0: 4fa6 cf3c 0510 6e3d a722 87bd 5358 c6bd
000002c0: 661c f1bd adaa 5ebe 0912 1fbe 6c46 6bbd
000002d0: 1e45 79bd 9090 7fbd 2e43 b03d d3be 083e
000002e0: ae90 f93c eac2 07bd afa6 74bd f840 1bbe
000002f0: 61b2 26be ac43 0fbe 7df2 f6b9 c87d 97bd
00000300: ed3d 58bd abd8 19be 2682 14be 047e 05be
00000310: fa28 a6bc 2e45 ba3c 30b8 a7bd cde5 853c
00000320: 9cbe 683d 813c c43d ed1a 77bd 99c1 75bd
00000330: 6d9d a2bd 3bdb 23be 8abe 20be 9588 9ebd
00000340: 0c0c 93bd b43e ad3c 6c3e 033e d042 0c3e
00000350: 8911 1bbc 846e b5bc 2320 a8bd 55f5 26be
00000360: e5e2 8cbd e2d2 dabd 8b5f 4d3d 738c 51ba
00000370: 41e7 dbbd 5d5a 4ebe 14b2 89bd d4cf 81bd
00000380: 9c00 e8bc 88e8 46bd a06c 2cbd c246 07bd
00000390: ab02 60bd ff0f 4b3d 76ec 583d b4ff a93d
000003a0: c891 b63c 0dd9 32be 8ca0 5abe a9ab 0abe
000003b0: 3497 bdbd 786f ea3d 2f78 563e 25d1 f23d
000003c0: d0fb 5fbd 5ce2 1abe 5b8b 6ebe 9035 0ebe
000003d0: b1dc e0bd 79e4 9dbd 6e2a c0bd cd64 15be
000003e0: 16f4 f9bd 261d 5ebe e282 aebd 0d51 afbd
000003f0: 7e2a e63c 56a4 40bc a876 babd 2e4b f9bd

layer_1.bias f4 [16]
-0.020414023 -0.008380113 0.06753219 0.06421372 0.0013993919 0.1395153 -0.08790954 0.012173315
0.01876555 0.17407303 0.0750349 0.061475795 0.0023387952 0.055684384 -0.049068853 0.058401383
00000000: 4f3b a7bc be4c 09bc 514e 8a3d 7c82 833d
00000010: cd6b b73a 19dd 0e3e eb09 b4bd 9572 473c
00000020: 36ba 993c 3340 323e e6ab 993d 0bce 7b3d
00000030: 7946 193b 4f15 643d 6cfc 48bd 4a36 6f3d

layer_2.weight f4 [60, 16]
0.21640748 0.024599211 0.2226182 0.0001011616 -0.050573595 0.16283566 0.12954374 0.03090536
-0.32773525 -0.055770822 0.13357231 0.08117266 0.10495144 -0.08400859 0.33962974 0.1136697
0.2658389 -0.104831286 0.19007234 0.0319328 0.15159933 -0.026444819 0.031733513 -0.1737316
0.13428731 0.11255198 0.22359559 -0.015959077 -0.09519538 0.076481804 0.20990685 -0.10590448
0.20289817 0.018628012 -0.2085243 0.05783375 0.1602768 0.020063378 0.09636645 0.10960116
0.08093927 -0.07978624 0.21032715 0.11753064 -0.037438896 0.019227182 0.16356577 0.021525316
0.21740407 -0.072376944 -0.14530557 0.19372745 0.035081513 -0.09829052 0.06306928 0.12284113
0.22298391 0.09952555 0.07834067 0.098713756 -0.024087224 0.13186762 -0.027385447 -0.0229041
-0.20896702 0.048547488 -0.20965894 -0.021506956 0.065175995 -0.08710988 0.08244167 0.12775497
0.108217016 0.094301775 -0.08442425 0.13367833 -0.1691604 0.011740016 -0.081500545 0.009006695
0.103885986 -0.06297799 0.16249579 -0.011669931 -0.014607818 0.19280693 0.050201993 0.027348028
-0.22050065 0.041818324 0.003994292 -0.040517803 0.046806626 -0.0008706564 0.23105657 -0.033086263
0.195401 -0.059699237 0.06262827 -0.041929655 0.20530461 0.12116232 -0.2395823 -0.051524535
0.102900416 0.12097397 0.119526364 0.0024063142 0.117445 -0.0075730807 -0.17137122 -0.1072587
0.2884926 -0.11220345 -0.04701162 0.13169967 0.12537646 0.05023308 -0.08848439 -0.008408472
0.23466192 -0.08786422 0.10620124 0.027179098 -0.049112108 -0.011428395 0.11221562 0.060460858
0.0025364014 0.04172246 -0.18898539 0.11059866 0.08833071 -0.02321735 -0.10517099 -0.012976754
0.31580964 -0.11183566 -0.20860773 0.15486485 -0.055946592 -0.01142995 0.044670675 0.018218096
0.17602234 0.091339715 0.077569135 0.13405025 0.069255196 0.18700677 0.13550131 0.03797755
-0.07780148 -0.120586544 0.05267655 -0.022427758 0.07753649 -0.097126536 0.3017521 0.14297369
-0.115992196 -0.031603415 -0.07254831 0.05593785 -0.03956934 -0.02642695 -0.0029842202 0.01276467
0.22050956 0.05969019 -0.08415033 0.12603685 -0.088078305 0.11543017 -0.015195549 -0.05821525
0.08481719 -0.14362554 0.18843654 0.12972443 0.076762035 -0.021659564 -0.08027061 -0.1199536
0.23566607 0.06280963 0.21927106 0.02783205 -0.03226322 0.02531464 0.042864136 -0.0034445913
0.08376889 0.03184361 0.008269351 -0.056400675 0.28450066 -0.11523134 0.00063246005 -0.08726592
0.014672794 0.060246874 0.17949377 -0.008681013 -0.1276044 0.08880185 -0.022935085 -0.0036263752
0.17422311 0.17578192 0.041997664 0.10004799 0.082528785 0.15783091 0.17383274 -0.009436896
-0.0036739921 0.1910022 0.15393308 0.059931412 0.09806111 0.008883781 0.1965369 0.034218866
0.06853185 -0.060981184 0.13707022 -0.063650884 -0.099042565 0.0054827007 -0.12418512 0.067237146
-0.0011401373 0.19374126 0.11514703 -0.002764374 -0.1509142 0.023945985 -0.23465535 0.08971332
0.04415026 0.06729398 0.0020226021 -0.005262541 -0.10742267 0.12624572 0.061912447 -0.026355717
0.060388565 -0.27327135 -0.079316065 0.007821139 0.12626044 -0.06315397 0.26660833 -0.020940188
00000000: ec99 5d3e 4984 c93c 07f6 633e b826 d438
00000010: 4226 4fbd 64be 263e 1da7 043e 3d2d fd3c
00000020: eacc a7be f26f 64bd 2ec7 083e da3d a63d
00000030: c8f0 d63d b20c acbd f3e3 ad3e a9cb e83d
00000040: 091c 883e c9b1 d6bd 53a2 423e f8cb 023d
00000050: db3c 1b3e cea2 d8bc 00fb 013d b2e6 31be
00000060: 9d82 093e a781 e63d 3ef6 643e 9cbc 82bc
00000070: ccf5 c2bd 7ea2 9c3d d2f1 563e 73e4 d8bd
00000080: 8ac4 4f3e c699 983c 6587 55be 15e3 6c3d
00000090: 9a1f 243e f45b a43c c65b c53d 9376 e03d
000000a0: 7dc3 a53d f866 a3bd 0060 573e e7b3 f03d
000000b0: 8759 19bd 5382 9d3c c97d 273e dc55 b03c
000000c0: 2c9f 5e3e 5d3a 94bd fcca 14be 7d60 463e
000000d0: a2b1 0f3d 8a4c c9bd 772a 813d 2194 fb3d
000000e0: e555 643e 0dd4 cb3d 1371 a03d 702a ca3d
000000f0: 9252 c5bc 4e08 073e 7257 e0bc 61a1 bbbc
00000100: 73fb 55be bbd9 463d d5b0 56be 5b2f b0bc
00000110: fe7a 853d aa66 b2bd 2ed7 a83d 33d2 023e
00000120: e2a0 dd3d 4a21 c13d 9fe6 acbd f9e2 083e
00000130: 6238 2dbe 3259 403c c2e9 a6bd d190 133c
00000140: 2dc2 d43d 9bfa 80bd 4c65 263e 3d33 3fbc
00000150: a155 6fbc 2e6f 453e 9ba0 4d3d f908 e03c
00000160: ecca 61be b149 2b3d 8de2 823b fff5 25bd
00000170: 4eb8 3f3d c33c 64ba 189a 6c3e 7685 07bd
00000180: 3317 483e 3087 74bd 4043 803d 6ebe 2bbd
00000190: 5f3b 523e f323 f83d 1055 75be 640b 53bd
000001a0: 74bd d23d 33c1 f73d 3dca f43d 41b3 1d3b
000001b0: 0187 f03d 9b27 f8bb f07b 2fbe 73aa dbbd
000001c0: 4db5 933e ecca e5bd 428f 40bd 47dc 063e
000001d0: b062 003e 34c1 4d3d 4e37 b5bd b0c3 09bc
000001e0: 374b 703e 28f2 b3bd 0980 d93d b3a6 de3c
000001f0: c729 49bd 2a3e 3bbc 4ed1 e53d cea5 773d
00000200: c139 263b 2ce5 2a3d 6385 41be 8d81 e23d
00000210: bbe6 b43d 5032 bebc e363 d7bd 749c 54bc
00000220: cdb1 a13e 180a e5bd 449d 55be e494 1e3e
00000230: 4128 65bd af44 3bbc 99f8 363d 1e3e 953c
00000240: 333f 343e 5110 bb3d 91dc 9e3d 7844 093e
00000250: abd5 8d3d b47e 3f3e dbc0 0a3e 598e 1b3d
00000260: 6256 9fbd 14f6 f6bd 5ec3 573d 6bba b7bc
00000270: 74cb 9e3d 47ea c6bd 407f 9a3e b267 123e
00000280: 518d edbd 9572 01bd 3594 94bd 161f 653d
00000290: 7613 22bd 557d d8bc e892 43bb e822 513c
000002a0: 42cd 613e b37d 743d 0257 acbd ce0f 013e
000002b0: 6662 b4bd a766 ec3d c0f6 78bc 1d73 6ebd
000002c0: a3b4 ad3d 9312 13be 82f5 403e 7bd6 043e
000002d0: 6a35 9d3d 666f b1bc eb64 a4bd 3caa f5bd
000002e0: 7252 713e 56a2 803d 9888 603e 0a00 e43c
000002f0: 7026 04bd a660 cf3c 4e92 2f3d a7be 61bb
00000300: 068f ab3d 726e 023d 2c7c 073c 6504 67bd
00000310: 12aa 913e 69fe ebbd adcb 253a 7ab8 b2bd
00000320: 2966 703c 6dc5 763d 37cd 373e cf3a 0ebc
00000330: baaa 02be bfdd b53d 5ce2 bbbc 7ba8 6dbb
00000340: 8b67 323e 2d00 343e be05 2c3d f6e5 cc3d
00000350: da04 a93d 6d9e 213e 3601 323e 369d 1abc
00000360: 5cc7 70bb 1596 433e a2a0 1d3e a47a 753d
00000370: 43d4 c83d 478d 113c f840 493e 1529 0c3d
00000380: 6d5a 8c3d 68c7 79bd 235c 0c3e 655b 82bd
00000390: d4d6 cabd 3aa8 b33b c554 febd a1b3 893d
000003a0: a970 95ba 1c64 463e 35d2 eb3d 802a 35bb
000003b0: 4189 1abe 5f2a c43c 7e49 70be 9ebb b73d
000003c0: e7d6 343d 6dd1 893d a28d 043b 6571 acbb
000003d0: 6b00 dcbd 8f46 013e e897 7d3d f2e7 d7bc
000003e0: 005a 773d 39ea 8bbe 7670 a2bd 3c24 003c
000003f0: 6b4a 013e de56 81bd e380 883e c28a abbc

layer_2.bias f4 [60]
0.23168652 0.2420128 -0.015202947 0.23337024 -0.050580215 -0.20067674 0.09266875 0.04020612
0.038355876 0.09028947 -0.1161299 0.23804103 -0.121784985 0.19740164 0.23512791 -0.14076495
0.2006415 0.18924516 -0.11748117 -0.0053964793 0.2553126 0.14888851 0.16571662 0.20220983
0.27227226 0.15928401 -0.16920088 -0.14178786 0.22471806 -0.008478869 0.050953727 0.06348276
-0.19020875 -0.09353527 -0.19762927 0.014282996 -0.07760572 0.068844244 -0.027686136 0.073813595
-0.25921676 0.022326708 0.196659 -0.018408617 -0.08454314 -0.01792031 -0.053843766 -0.057755787
0.15161651 0.15391539 -0.012268798 -0.013148681 0.19254091 0.12285088 -0.17863467 -0.07707974
0.08874502 0.007116514 -0.1635922 -0.2614201
00000000: 3b3f 6d3e 34d2 773e c815 79bc 9cf8 6e3e
00000010: 332d 4fbd 347e 4dbe 1dc9 bd3d 2caf 243d
00000020: 0d1b 1d3d b0e9 b83d 83d5 edbd 07c1 733e
00000030: 686a f9bd a823 4a3e 5fc5 703e b024 10be
00000040: f774 4d3e 7cc9 413e f899 f0bd f3d4 b0bb
00000050: 55b8 823e 3b76 183e 9eb1 293e 1810 4f3e
00000060: 4567 8b3e 591b 233e ff42 2dbe d630 11be
00000070: 7e1c 663e f4ea 0abc dbb4 503d 4003 823d
00000080: 15c6 42be 6b8f bfbd 545f 4abe 3a03 6a3c
00000090: bfef 9ebd 36fe 8c3d 09ce e2bc 952b 973d
000000a0: 0fb8 84be 80e6 b63c fa60 493e abcd 96bc
000000b0: f424 adbd 9dcd 92bc 488b 5cbd 5591 6cbd
000000c0: 5c41 1b3e ff9b 1d3e 1203 49bc 916d 57bc
000000d0: 7229 453e 3e99 fb3d 02ec 36be fcdb 9dbd
000000e0: f3bf b53d a531 e93b b784 27be dbd8 85be

layer_3.weight f4 [10, 60]
0.2285527 -0.080382325 0.03868913 0.037166506 -0.23236644 0.16114172 -0.24717024 -0.015036793
-0.15928224 0.13791537 -0.17709495 -0.17104766 -0.16217577 0.1736035 -0.19871588 0.042643767
0.13059382 0.17545663 0.11397368 -0.16078094 -0.06349332 0.13065594 -0.17715344 -0.037307102
-0.07915773 0.12660904 -0.2617578 0.054725457 0.058322955 0.17312326 0.1257997 0.14014195
0.15757614 -0.11826622 0.11283663 -0.12972328 0.06479935 0.13662195 -0.103245206 0.08819626
-0.17707653 -0.1686059 0.1262553 -0.027155133 -0.123231836 -0.10708519 -0.28002128 0.19190829
-0.046800423 0.13211621 -0.07593873 0.12622584 -0.14557147 -0.017877426 0.12306224 0.096507065
-0.031293556 -0.20093253 0.08752617 0.08362563 -0.0029276046 0.16809186 0.11888328 0.09253473
-0.014416131 -0.024695912 0.1680894 0.1026889 0.11761215 -0.09070708 0.032030847 0.15660985
0.06500372 0.08209207 0.09453511 0.12687458 -0.09972 0.23258436 0.17081386 0.071956895
0.094943546 0.14639184 0.12816074 0.17552923 0.14951214 -0.14100835 0.07804937 0.10806641
0.09789921 0.1475102 0.15557225 -0.02708071 -0.05446424 0.01335147 0.086539656 0.09080051
0.10021178 -0.1275988 0.12551449 -0.13656072 0.06974603 0.11969213 0.119045794 0.07883889
0.09650662 0.09180356 0.17444392 -0.14971147 0.12409994 -0.030760836 0.06471233 0.10803917
0.100070365 0.13622636 -0.12935363 0.06272917 0.15918861 0.05971855 -0.17543186 -0.10043429
-0.17866847 -0.2917968 0.03735185 -0.08276538 0.09457339 -0.086743355 -0.091927655 0.021210548
0.07337885 0.03258065 -0.042816933 -0.10592289 0.0055293194 -0.1101154 -0.0971303 0.13983513
0.048384685 -0.07232507 0.03140161 0.10187815 0.010111194 0.021492165 -0.01873556 -0.19345711
0.03269072 0.0515277 -0.1826243 -0.31875557 -0.20292681 0.01799441 0.0783156 -0.06892087
-0.18454331 0.07607573 -0.22308789 0.02590028 -0.01976984 -0.013129442 -0.085948154 0.008753509
-0.19034581 -0.2568901 -0.011425126 0.026958056 -0.26391333 -0.33710387 0.08936202 -0.016738877
-0.098131575 -0.023374679 0.02663031 -0.12800331 -0.049384173 -0.038504485 -0.15900494 0.009535717
-0.16352496 -0.23420201 0.043197606 0.06105847 -0.22686099 -0.1521492 -0.25843877 -0.15431167
-0.050154217 -0.27667814 -0.085628 -0.16307916 -0.0047735074 -0.01875758 0.056501005 -0.18144053
-0.160154 0.018001327 -0.19151448 -0.13001649 -0.14766969 -0.2960684 -0.11499694 0.07478666
0.014634976 0.010792778 0.0018968204 -0.18936634 -0.07560662 0.05750878 -0.016424738 0.07217134
-0.09327288 -0.13343127 0.01674528 -0.1575999 -0.20277117 -0.1365004 -0.21850628 -0.0174542
0.033769477 -0.12611523 -0.2703158 -0.2030137 -0.1850985 -0.22761813 -0.311228 -0.06479344
-0.027572816 0.042950813 -0.15069139 -0.30173495 0.020197062 -0.12110839 0.074983016 -0.083845496
0.032628268 0.08742676 -0.023044914 -0.0823297 0.020540442 0.068201385 -0.13358343 -0.068364196
0.08044318 -0.00035006294 -0.08085054 0.019681172 -0.123691946 0.08815162 0.137056 0.04756381
0.065038286 -0.0070566162 -0.011567184 0.118253924 -0.034498855 -0.125155 0.085744105 0.108165115
00000000: b809 6a3e 7d9f a4bd 7e78 1e3d e83b 183d
00000010: 78f1 6dbe 5602 253e 321a 7dbe e25c 76bc
00000020: e21a 23be b039 0d3e 6158 35be 1e27 2fbe
00000030: 6811 26be 1ec5 313e 2d7c 4bbe 3bab 2e3d
00000040: 63ba 053e e7aa 333e 086b e93d c2a3 24be
00000050: c908 82bd acca 053e b667 35be 55cf 18bd
00000060: 731d a2bd cda5 013e 1e05 86be cd27 603d
00000070: 0de4 6e3d 3947 313e a3d1 003e 5f81 0f3e
00000080: a45b 213e 8f35 f2bd e416 e73d 2ed6 04be
00000090: 86b5 843d a0e6 0b3e 3972 d3bd 3ea0 b43d
000000a0: 8d53 35be 06a7 2cbe 1249 013e 7174 debc
000000b0: f960 fcbd 7b4f dbbd f35e 8fbe 9b83 443e
000000c0: cdb1 3fbd 7949 073e c485 9bbd 5941 013e
000000d0: b010 15be ae73 92bc 0e08 fc3d 7fa5 c53d
000000e0: ac2d 00bd 42c1 4dbe ec40 b33d ea43 ab3d
000000f0: 0edd 3fbb 4620 2c3e 1479 f33d d982 bd3d
00000100: a331 6cbc 154f cabc a11f 2c3e 8f4e d23d
00000110: a4de f03d a2c4 b9bd c732 033d 555e 203e
00000120: ac20 853d e31f a83d a09b c13d 69eb 013e
00000130: 003a ccbd 982a 6e3e d4e9 2e3e 235e 933d
00000140: c371 c23d bee7 153e 923c 033e efbd 333e
00000150: b619 193e 7e64 10be 59d8 9f3d ec51 dd3d
00000160: 627f c83d ea0c 173e 554e 1f3e 5dd8 ddbc
00000170: e515 5fbd 20c0 5a3c b43b b13d 9ef5 b93d
00000180: d53b cd3d 43a9 02be df86 003e 93d6 0bbe
00000190: 02d7 8e3d 2621 f53d 48ce f33d 4976 a13d
000001a0: 43a5 c53d 8103 bc3d 6da1 323e f74d 19be
000001b0: 1c28 fe3d 26fe fbbc e687 843d a443 dd3d
000001c0: b1f1 cc3d ec7e 0b3e 4775 04be 2778 803d
000001d0: 5702 233e 709b 743d 69a4 33be 7eb0 cdbd
000001e0: def4 36be 6466 95be 41fe 183d e580 a9bd
000001f0: b2af c13d 80a6 b1bd 9144 bcbd bec1 ad3c
00000200: a747 963d 4a73 053d cf60 2fbd 1aee d8bd
00000210: 4b2f b53b 2f84 e1bd 40ec c6bd f130 0f3e
00000220: 052f 463d 2b1f 94bd f99e 003d 7ea5 d03d
00000230: 6ca9 253c 5610 b03c 517b 99bc 9f19 46be
00000240: b4e6 053d b60e 533d dd01 3bbe ee33 a3be
00000250: 0ccc 4fbe 0369 933c ee63 a03d 6326 8dbd
00000260: ecf8 3cbe 98cd 9b3d 2771 64be d32c d43c
00000270: 5cf4 a1bc df1c 57bc 9605 b0bd e16a 0f3c
00000280: 03ea 42be 1987 83be 7430 3bbc 24d7 dc3c
00000290: a61f 87be e198 acbe 6f03 b73d f81f 89bc
000002a0: 35f9 c8bd 417c bfbc cf27 da3c 4d13 03be
000002b0: 0f47 4abd e1b6 1dbd 31d2 22be b23b 1c3c
000002c0: 1673 27be a7d2 6fbe f9ef 303d 7218 7a3d
000002d0: 3f4e 68be 00cd 1bbe 1652 84be e103 1ebe
000002e0: 826e 4dbd c2a8 8dbe bc5d afbd 39fe 26be
000002f0: 156b 9cbb 7fa9 99bc 996d 673d 8ccb 39be
00000300: 69ff 23be 8577 933c 5f1c 44be 0b23 05be
00000310: b936 17be 4796 97be 8483 ebbd c029 993d
00000320: 8ac7 6f3c 31d4 303c bb9e f83a 40e9 41be
00000330: a5d7 9abd 548e 6b3d 2c8d 86bc 91ce 933d
00000340: da05 bfbd 35a2 08be 662d 893c de61 21be
00000350: 3fa3 4fbe c3c6 0bbe 1cc0 5fbe 1cfc 8ebc
00000360: dd51 0a3d 5a24 01be d566 8abe d3e2 4fbe
00000370: 768a 3dbe ba14 69be 4759 9fbe 6cb2 84bd
00000380: 63e0 e1bc 31ed 2f3d d84e 1abe 017d 9abe
00000390: 4f74 a53c ad07 f8bd b290 993d 30b7 abbd
000003a0: 38a5 053d cd0c b33d b0c8 bcbc 799c a8bd
000003b0: 6e44 a83c 2bad 8b3d 18ca 08be 8702 8cbd
000003c0: 65bf a43d a788 b7b9 f894 a5bd 693a a13c
000003d0: 3452 fdbd d688 b43d 6858 0c3e 45d2 423d
000003e0: cb32 853d 303b e7bb 4984 3dbc 1d2f f23d
000003f0: ac4e 0dbd a228 00be 9b9a af3d ac85 dd3d

layer_3.bias f4 [10]
-0.009022545 -0.017692227 -0.13527675 -0.047255006 -0.075591795 -0.08939677 0.028201703 -0.0173917
0.095452905 -0.08394508
00000000: 4cd3 13bc 4aef 90bc fd85 0abe 778e 41bd
00000010: dfcf 9abd a715 b7bd 4207 e73c 0a79 8ebc
00000020: d07c c33d 66eb abbd

exp_avg f4 [16, 784]
0.0 0.0 0.0 0.0 0.0 0.0 0.0 0.0
0.0 0.0 0.0 0.0 0.0 0.0 0.0 0.0
0.0 0.0 0.0 0.0 0.0 0.0 0.0 0.0
0.0 0.0 0.0 0.0 0.0 0.0 0.0 0.0
0.0 0.0 0.0 0.0 0.0 0.0 0.0 -7.169083e-09
-1.4170141e-08 -5.8248806e-09 -3.8584574e-08 -4.646579e-08 -6.9288424e-09 2.5267888e-11 0.0 0.0
0.0 0.0 0.0 0.0 0.0 0.0 0.0 0.0
0.0 0.0 0.0 0.0 0.0 0.0 0.0 0.0
0.0 0.0 0.0 -5.15278e-09 -5.997895e-08 -7.3126404e-07 -2.0134749e-07 -4.6314785e-08
-2.3146933e-08 4.3192915e-13 0.0 0.0 0.0 0.0 0.0 0.0
0.0 0.0 0.0 0.0 0.0 0.0 -1.6436602e-17 -3.913479e-18
0.0 0.0 0.0 0.0 0.0 0.0 -9.9025866e-12 -6.4868853e-09
-4.941427e-07 -1.1004997e-06 -5.259416e-07 -8.1057834e-08 -3.3246758e-07 -1.4090659e-06 -1.3250533e-06 -6.0537445e-08
-3.216771e-08 -1.0041434e-09 4.921573e-17 3.1110445e-18 1.8580946e-19 5.319249e-20 0.0 0.0
0.0 0.0 -5.63541e-17 -1.7253494e-10 -4.3133736e-11 0.0 0.0 -5.348248e-13
-5.675991e-13 -6.365009e-11 -1.1878888e-07 -5.478503e-07 -2.6171163e-06 -3.0274227e-06 -2.7049796e-06 -4.0726322e-06
-1.0629886e-05 -1.1688075e-05 -6.639918e-06 -2.3306545e-06 -6.8057324e-07 -3.715128e-08 8.316732e-11 2.6088526e-12
8.452506e-20 5.1006533e-21 0.0 0.0 0.0 0.0 -7.826958e-18 -2.8935548e-10
-2.8755826e-11 0.0 -3.698801e-14 -1.2855452e-13 -9.225001e-14 -2.9004259e-08 -5.068862e-07 -4.1977696e-06
-4.118123e-06 -4.3662994e-06 -8.3905564e-07 1.3173708e-06 -3.5716057e-06 -8.898141e-06 -1.3174044e-06 -1.8114393e-06
-7.7654465e-07 -1.7288476e-06 2.1198447e-07 1.2092852e-07 0.0 0.0 0.0 0.0
0.0 0.0 0.0 -1.2188183e-19 -1.56961e-14 -2.3958794e-13 -7.859947e-14 -1.4350015e-12
-6.983294e-11 -5.4229263e-06 -1.4420322e-05 -7.711767e-06 -6.5842496e-06 -3.0664967e-06 6.912707e-06 -1.05040335e-05
-1.0312723e-05 -1.0873158e-05 1.5611278e-06 -1.5784591e-06 -9.3189996e-08 -1.151553e-06 6.9903035e-07 6.6322906e-07
0.0 0.0 -1.7924344e-15 -1.190098e-14 0.0 0.0 0.0 -1.6714581e-12
-1.657736e-12 -2.1321817e-13 -2.6818416e-11 -8.965597e-11 -7.6594134e-11 -2.9259927e-06 -1.7805502e-05 -1.9483254e-05
-1.4756999e-05 -6.415722e-06 -1.2544026e-05 -1.530706e-05 -7.2377784e-06 -7.5080316e-06 1.0269908e-06 -7.009928e-06
-4.6717114e-06 -1.4021525e-06 6.987716e-07 6.494488e-07 1.120381e-17 6.257985e-18 -1.7932988e-15 -2.5106192e-14
0.0 0.0 0.0 -2.9772327e-19 -1.7012758e-19 -2.8387494e-18 -2.3225304e-10 -7.6091183e-10
9.251556e-12 -2.5180265e-07 -6.2702684e-06 -1.8785222e-05 -1.7782317e-05 -1.2337467e-05 -1.6804488e-05 -9.960792e-06
-8.345899e-06 4.310774e-06 6.471742e-06 -1.4430311e-06 -4.504975e-06 -1.8013197e-06 6.3816515e-07 1.4572511e-07
1.2616912e-18 0.0 0.0 0.0 0.0 0.0 0.0 0.0
00000000: 0000 0000 0000 0000 0000 0000 0000 0000
00000010: 0000 0000 0000 0000 0000 0000 0000 0000
00000020: 0000 0000 0000 0000 0000 0000 0000 0000
00000030: 0000 0000 0000 0000 0000 0000 0000 0000
00000040: 0000 0000 0000 0000 0000 0000 0000 0000
00000050: 0000 0000 0000 0000 0000 0000 0000 0000
00000060: 0000 0000 0000 0000 0000 0000 0000 0000
00000070: 0000 0000 0000 0000 0000 0000 0000 0000
00000080: 0000 0000 0000 0000 0000 0000 0000 0000
00000090: 0000 0000 0000 0000 0000 0000 ec53 f6b1
000000a0: f070 73b2 3124 c8b1 30b8 25b3 ad91 47b3
000000b0: be12 eeb1 3a42 de2d 0000 0000 0000 0000
000000c0: 0000 0000 0000 0000 0000 0000 0000 0000
000000d0: 0000 0000 0000 0000 0000 0000 0000 0000
000000e0: 0000 0000 0000 0000 0000 0000 0000 0000
000000f0: 0000 0000 0000 0000 0000 0000 0000 0000
00000100: 0000 0000 0000 0000 0000 0000 550c b1b1
00000110: c7cd 80b3 154c 44b5 fa31 58b4 a5eb 46b3
00000120: a5d4 c6b2 8d27 f32a 0000 0000 0000 0000
00000130: 0000 0000 0000 0000 0000 0000 0000 0000
00000140: 0000 0000 0000 0000 0000 0000 0000 0000
00000150: 0000 0000 0000 0000 d499 97a3 c461 90a2
00000160: 0000 0000 0000 0000 0000 0000 0000 0000
00000170: 0000 0000 0000 0000 4935 2ead 3fe3 deb1
00000180: 3aa5 04b5 e2b4 93b5 6e2e 0db5 0412 aeb3
00000190: ff7d b2b4 231f bdb5 7cd8 b1b5 d000 82b3
000001a0: c528 0ab3 2802 8ab0 aef7 6224 f88d 6522
000001b0: 775d 5b20 c631 7b1f 0000 0000 0000 0000
000001c0: 0000 0000 0000 0000 97f1 81a4 45b4 3daf
000001d0: 45b4 3dae 0000 0000 0000 0000 308a 16ab
000001e0: d3c3 1fab d1f7 8bae e118 ffb3 fc0f 13b5
000001f0: b7a1 2fb6 ba2a 4bb6 3287 35b6 a5a7 88b6
00000200: 0357 32b7 e617 44b7 76cc deb6 5768 1cb6
00000210: a3b0 36b5 4490 1fb3 0ae3 b62e e994 372c
00000220: 4494 c71f 7eb2 c01d 0000 0000 0000 0000
00000230: 0000 0000 0000 0000 c461 10a3 2a13 9faf
00000240: 5df0 fcad 0000 0000 4694 26a9 51bd 10aa
00000250: 83ba cfa9 0a25 f9b2 f410 08b5 91da 8cb6
00000260: 682e 8ab6 3a82 92b6 773b 61b5 84d0 b035
00000270: b8af 6fb6 3949 15b7 acd1 b0b5 9520 f3b5
00000280: be73 50b5 c00a e8b5 d99d 6334 94d8 0134
00000290: 0000 0000 0000 0000 0000 0000 0000 0000
000002a0: 0000 0000 0000 0000 0000 0000 86e4 0fa0
000002b0: be60 8da8 43e0 86aa 82fd b0a9 61f5 c9ab
000002c0: 7390 99ae 95f6 b5b6 d0ee 71b7 c961 01b7
000002d0: 46ee dcb6 03ca 4db6 b3f3 e736 7b3a 30b7
000002e0: cf04 2db7 dc6b 36b7 f187 d135 71db d3b5
000002f0: be1f c8b3 0f8f 9ab5 00a5 3b35 c108 3235
00000300: 0000 0000 0000 0000 9428 01a7 9563 56a8
00000310: 0000 0000 0000 0000 0000 0000 a03c ebab
00000320: 3c4e e9ab f40f 70aa b4e5 ebad d327 c5ae
00000330: aa6e a8ae 2c5c 44b6 065d 95b7 f86f a3b7
00000340: d494 77b7 a246 d7b6 2e74 52b7 a967 80b7
00000350: 0bdc f2b6 80ed fbb6 23d7 8935 d336 ebb6
00000360: b2c1 9cb6 9831 bcb5 3893 3b35 c855 2e35
00000370: 7fac 4e23 ffe0 e622 8638 01a7 f022 e2a8
00000380: 0000 0000 0000 0000 0000 0000 abbe afa0
00000390: e8d9 48a0 7676 51a2 6b5d 7faf 6928 51b0
000003a0: 4ec1 222d 7e2f 87b4 3265 d2b6 f594 9db7
000003b0: 3c2b 95b7 04fd 4eb7 5df7 8cb7 471d 27b7
000003c0: 5d05 0cb7 44a5 9036 d727 d936 2cae c1b5
000003d0: 7129 97b6 e0c4 f1b5 604e 2b35 9d78 1c34
000003e0: 5931 ba21 0000 0000 0000 0000 0000 0000
000003f0: 0000 0000 0000 0000 0000 0000 0000 0000

exp_avg_sq f4 [16, 784]
0.0 0.0 0.0 0.0 0.0 0.0 0.0 0.0
0.0 0.0 0.0 0.0 0.0 0.0 0.0 0.0
0.0 0.0 0.0 0.0 0.0 0.0 0.0 0.0
0.0 0.0 0.0 0.0 0.0 0.0 0.0 0.0
0.0 0.0 0.0 0.0 0.0 0.0 0.0 7.989407e-13
3.1213014e-12 5.274255e-13 1.4952462e-15 1.3948891e-11 1.0419753e-10 2.3569945e-11 0.0 0.0
0.0 0.0 0.0 0.0 0.0 0.0 0.0 0.0
0.0 0.0 0.0 0.0 0.0 0.0 0.0 0.0
0.0 0.0 0.0 4.127341e-13 2.7840924e-12 4.3743637e-11 2.267356e-12 2.43787e-13
3.6234002e-12 7.7166065e-15 0.0 0.0 0.0 0.0 0.0 0.0
0.0 0.0 0.0 0.0 0.0 0.0 1.5369581e-20 8.712915e-22
0.0 0.0 0.0 0.0 0.0 0.0 5.4997686e-12 2.0352196e-10
1.0809095e-09 2.7194123e-09 3.5765755e-09 6.137419e-09 5.538227e-09 4.738085e-09 2.588878e-09 4.721443e-10
5.226976e-10 4.303971e-11 7.81488e-12 1.8361949e-11 3.8987286e-11 3.1951284e-12 0.0 0.0
0.0 0.0 1.8067093e-19 1.1589913e-19 6.576613e-21 0.0 0.0 8.827625e-15
3.081654e-13 3.5333358e-11 1.9047945e-08 7.0379116e-08 7.447742e-08 1.7844314e-07 4.734869e-07 4.4987667e-07
2.777722e-07 3.551304e-07 3.0620615e-07 3.8754328e-07 1.8533689e-07 3.059e-08 3.8258945e-11 2.8494242e-11
8.067866e-12 2.9379118e-14 0.0 0.0 0.0 0.0 3.485166e-21 2.9617677e-19
2.922939e-21 0.0 1.1952173e-17 3.874472e-14 2.8202497e-12 1.5048242e-10 4.3783327e-08 2.0787576e-07
2.5474358e-07 4.6276918e-07 1.2120587e-06 1.4368096e-06 1.3746622e-06 9.847415e-07 7.661575e-07 5.354906e-07
3.0974286e-07 1.3681398e-07 4.0113615e-09 1.5589756e-09 0.0 0.0 0.0 0.0
0.0 0.0 0.0 2.0333149e-15 8.548077e-15 7.443005e-15 4.3685046e-17 1.5720719e-13
5.17032e-11 4.153756e-10 6.709736e-08 2.607686e-07 3.8665428e-07 7.6284215e-07 1.6347908e-06 1.619003e-06
1.8213107e-06 1.3875054e-06 5.654292e-07 2.9859257e-07 2.1480538e-07 3.2782513e-08 1.7784966e-08 4.935163e-09
0.0 0.0 1.9445978e-10 4.294984e-15 0.0 0.0 0.0 5.2284903e-16
1.6932216e-15 5.994236e-15 2.0305444e-21 8.418781e-13 2.9904781e-10 6.020941e-09 9.6290776e-08 2.776363e-07
4.6226108e-07 1.3373266e-06 1.8982438e-06 1.9487352e-06 2.4583937e-06 1.7390648e-06 5.3548956e-07 3.7179788e-07
1.07981315e-07 5.0214712e-08 2.22334e-08 9.205142e-09 4.01006e-09 1.2510886e-09 9.7521696e-17 1.9114262e-14
0.0 0.0 0.0 2.266251e-15 7.400009e-16 3.8820713e-12 2.99601e-10 1.6071648e-09
4.2111847e-09 1.0068349e-08 6.8320986e-08 2.6037438e-07 8.6631513e-07 1.4242902e-06 2.2955264e-06 2.5222403e-06
2.4412566e-06 1.6250922e-06 7.5504465e-07 3.7851055e-07 5.808372e-08 5.322992e-08 1.30010855e-08 8.8574786e-10
5.0853953e-11 0.0 0.0 0.0 0.0 0.0 0.0 0.0
00000000: 0000 0000 0000 0000 0000 0000 0000 0000
00000010: 0000 0000 0000 0000 0000 0000 0000 0000
00000020: 0000 0000 0000 0000 0000 0000 0000 0000
00000030: 0000 0000 0000 0000 0000 0000 0000 0000
00000040: 0000 0000 0000 0000 0000 0000 0000 0000
00000050: 0000 0000 0000 0000 0000 0000 0000 0000
00000060: 0000 0000 0000 0000 0000 0000 0000 0000
00000070: 0000 0000 0000 0000 0000 0000 0000 0000
00000080: 0000 0000 0000 0000 0000 0000 0000 0000
00000090: 0000 0000 0000 0000 0000 0000 bfe1 602b
000000a0: 5ea4 5b2c 0375 142b d97c d726 3864 752d
000000b0: ff21 e52e cc52 cf2d 0000 0000 0000 0000
000000c0: 0000 0000 0000 0000 0000 0000 0000 0000
000000d0: 0000 0000 0000 0000 0000 0000 0000 0000
000000e0: 0000 0000 0000 0000 0000 0000 0000 0000
000000f0: 0000 0000 0000 0000 0000 0000 0000 0000
00000100: 0000 0000 0000 0000 0000 0000 4159 e82a
00000110: c0e9 432c f562 402e 0e8d 1f2c 693d 892a
00000120: 60f9 7e2c 9102 0b28 0000 0000 0000 0000
00000130: 0000 0000 0000 0000 0000 0000 0000 0000
00000140: 0000 0000 0000 0000 0000 0000 0000 0000
00000150: 0000 0000 0000 0000 5e29 911e 75aa 831c
00000160: 0000 0000 0000 0000 0000 0000 0000 0000
00000170: 0000 0000 0000 0000 8381 c12c 57c6 5f2f
00000180: 1f8f 9430 68e0 3a31 c8c7 7531 4fe1 d231
00000190: c34a be31 a3cc a231 06e8 3131 34c8 0130
000001a0: 93ad 0f30 684a 3d2e 177b 092d 6f83 a12d
000001b0: c877 2b2e 51d6 602c 0000 0000 0000 0000
000001c0: 0000 0000 0000 0000 704c 5520 5dd4 0820
000001d0: 1975 f81d 0000 0000 0000 0000 3c06 1f28
000001e0: 517b ad2a d365 1b2e e09e a332 5423 9733
000001f0: 65f0 9f33 149a 3f34 8b33 fe34 9486 f134
00000200: b820 9534 c0a8 be34 a764 a434 8b0f d034
00000210: 0401 4734 1062 0333 be43 282e 54a3 fa2d
00000220: 70ee 0d2d d14f 0429 0000 0000 0000 0000
00000230: 0000 0000 0000 0000 75aa 831d f8d4 ae20
00000240: ddd9 5c1d 0000 0000 8b7a 5c23 9f7d 2e29
00000250: 1a75 462c 0975 252f 470c 3c33 7434 5f34
00000260: b1c3 8834 8372 f834 05ae a235 67d8 c035
00000270: 0981 b835 762b 8435 f1a9 4d35 a2be 0f35
00000280: bc4a a634 24e7 1234 4fd4 8931 9443 d630
00000290: 0000 0000 0000 0000 0000 0000 0000 0000
000002a0: 0000 0000 0000 0000 0000 0000 0a84 1227
000002b0: 0cfd 1928 cd14 0628 3376 4924 e3ff 302a
000002c0: a164 632e eb5a e42f 2a17 9033 c3ff 8b34
000002d0: 5c95 cf34 1dc6 4c35 fc6a db35 854c d935
000002e0: c273 f435 533a ba35 00c8 1735 404e a034
000002f0: 41a5 6634 c1cc 0c33 8ec5 9832 2792 a931
00000300: 0000 0000 0000 0000 90cf 552f 3cbe 9a27
00000310: 0000 0000 0000 0000 0000 0000 73b3 1626
00000320: da04 f426 12f7 d727 716c 191d b6f7 6c2b
00000330: 3d67 a42f c2e0 ce31 6ac8 ce33 0b0e 9534
00000340: ae2c f834 317e b335 29c7 fe35 04c7 0236
00000350: e2fa 2436 d069 e935 90be 0f35 839b c734
00000360: 5be3 e733 a9ab 5733 c3fb be32 a524 1e32
00000370: dcc8 8931 c4f2 ab30 a6de e024 7d2a ac28
00000380: 0000 0000 0000 0000 0000 0000 f44c 2327
00000390: 6e4a 5526 9796 882c 18b5 a42f 16e3 dc30
000003a0: f9b1 9031 11f9 2c32 dcb7 9233 95c9 8b34
000003b0: b98c 6835 3d2a bf35 d80c 1a36 c243 2936
000003c0: 78d4 2336 be1d da35 46ae 4a35 1836 cb34
000003d0: ba77 7933 ea9e 6433 615b 5f32 f778 7330
000003e0: 76a8 5f2e 0000 0000 0000 0000 0000 0000
000003f0: 0000 0000 0000 0000 0000 0000 0000 0000

exp_avg f4 [16]
-3.3967586e-05 -6.458338e-05 -0.00011349216 1.223374e-05 -8.573488e-05 -0.00013414692 -0.00020394927 -4.2678184e-05
-6.33456e-08 -2.3406954e-05 -9.778671e-05 4.394042e-05 -0.00023072887 -2.923226e-05 -0.00020961529 -0.0001628411
00000000: 6b78 0eb8 f070 87b8 a402 eeb8 833f 4d37
00000010: 90cc b3b8 caa9 0cb9 37db 55b9 5a01 33b8
00000020: 9d08 88b3 0d5a c4b7 d712 cdb8 ab4c 3838
00000030: cfef 71b9 cd37 f5b7 2dcc 5bb9 53c0 2ab9

exp_avg_sq f4 [16]
4.5888864e-06 1.7734229e-06 5.6403843e-07 2.9022262e-06 9.115059e-06 4.7422195e-06 7.863417e-06 1.1788921e-06
2.3986491e-05 5.099412e-06 9.133585e-06 9.645922e-07 5.146209e-06 2.6505966e-06 1.0766791e-05 2.1361857e-06
00000000: 3cfa 9936 5906 ee35 6d68 1735 dec3 4236
00000010: e1ec 1837 5b1f 9f36 1eed 0337 6d3a 9e35
00000020: 9936 c937 9e1b ab36 733c 1937 2377 8135
00000030: 99ad ac36 e7e0 3136 04a3 3437 645b 0f36

exp_avg f4 [60, 16]
-2.8737777e-05 -0.00048674125 -0.00015428105 -0.00011784567 1.6882383e-05 -0.00033596903 -0.0003747882 -0.00046169476
-1.4017715e-05 -0.00019632322 -7.5670246e-06 -6.473947e-05 -0.00047025815 -0.00029658235 -6.915319e-05 -0.00034528042
-2.67882e-05 -4.501662e-05 1.7061786e-05 -7.411645e-05 -5.2073527e-05 -2.1646435e-06 -9.430217e-06 -6.159135e-05
-9.203998e-05 -0.00014914815 -0.00010160002 -0.00013932554 2.59323e-06 -0.00016296565 3.3371954e-05 -3.0334827e-06
4.4882802e-07 0.000105567284 3.0965508e-05 1.1312668e-05 -2.5194457e-05 7.972905e-05 8.161612e-05 9.387603e-05
-3.4475244e-05 -1.6555525e-05 -5.2248666e-05 -6.247728e-05 0.000119282246 3.345618e-06 1.1539628e-05 7.8893834e-05
3.5070698e-07 8.152118e-05 2.7706712e-05 8.388718e-06 -1.77332e-05 6.20349e-05 6.437176e-05 7.3564835e-05
-2.3646095e-05 -6.792124e-06 -3.3788558e-05 -3.832346e-05 9.127832e-05 9.501481e-06 1.0647751e-05 6.146571e-05
2.158525e-05 0.00030625114 2.8570987e-05 5.3955857e-05 -3.3135377e-05 0.00019091839 0.0002370823 0.000261108
-2.7860462e-05 0.00013665268 -2.2521206e-05 -2.0896236e-05 0.0002818555 0.00014603799 3.1153657e-05 0.00020484233
-3.611774e-05 -0.0004294693 -0.00013797116 -0.000120732686 -4.6856317e-06 -0.00029157798 -0.0003278677 -0.0004130487
-3.462197e-05 -0.0001945113 -2.4892355e-05 -8.9899986e-05 -0.00040734716 -0.00029258727 -6.273826e-05 -0.0003041932
1.3880726e-05 0.00026883863 2.0090893e-05 7.517174e-05 -7.9010904e-05 0.00016242047 0.0001407053 0.00021855203
-9.431962e-05 6.632221e-05 -0.00011545563 -0.00022048254 0.0003244819 -1.9893287e-05 1.7498769e-07 0.0001608345
-1.5690095e-05 -3.5656252e-05 8.7263425e-06 -3.8499038e-05 -3.0726347e-05 -5.899758e-06 -1.0047046e-05 -2.9554803e-05
-5.3639294e-05 -6.498619e-05 -5.037268e-05 -5.631775e-05 -8.628549e-06 -7.302099e-05 1.5415795e-06 -5.7520797e-06
-2.8802346e-05 -6.343644e-05 2.1617172e-05 -6.1640705e-05 -4.749443e-05 -6.282643e-05 -5.1601477e-05 -0.00011518712
-8.7952125e-05 -0.000113336304 -8.5732994e-05 -0.00014875508 -1.4344887e-05 -0.00017591908 2.1930289e-06 -9.183511e-06
-2.2818691e-05 -0.00045439473 -0.00014347845 -0.00010000457 2.6297696e-05 -0.00031262517 -0.00035135302 -0.00042609737
8.8943665e-07 -0.00019190057 -5.01081e-06 -6.1913124e-05 -0.00043928562 -0.00027998677 -6.279904e-05 -0.0003245972
1.0665003e-05 0.00019213525 4.0014773e-05 5.9108137e-05 -3.1558688e-05 0.000128003 0.00012029554 0.0001714759
-2.2393999e-05 8.114404e-05 -2.6529868e-05 -3.3561293e-05 0.00018772177 9.7601136e-05 1.2738038e-05 0.00013055488
-3.187408e-05 -2.911491e-06 9.9874414e-05 -4.815261e-05 -5.3358006e-05 4.375005e-05 1.8603858e-05 1.3219163e-05
-7.940086e-05 -0.0001706187 -0.000108348235 -0.000117815456 6.447398e-05 -0.00011764944 1.9298446e-05 4.2237443e-05
-2.5184989e-05 -4.904019e-05 -2.8739264e-06 -5.1653187e-05 -4.4869255e-05 -6.6050743e-06 -1.5937278e-05 -4.9057766e-05
-6.940591e-05 -0.00012263643 -8.6696986e-05 -0.000105231484 -1.1182047e-05 -0.00012527821 5.722292e-06 -1.5819913e-05
-1.8128889e-05 -0.00023087642 -7.668259e-05 -6.4473315e-05 -3.919198e-06 -0.00015808304 -0.00017867546 -0.00022479678
-2.7058566e-05 -0.00012434804 -3.1994707e-05 -7.4706644e-05 -0.0002159222 -0.0001764069 -3.588651e-05 -0.00016324258
2.4931343e-05 0.0003503478 0.000103769686 0.00010414296 -4.8798513e-05 0.0002695152 0.00025707393 0.0003534255
-4.25291e-05 0.000114713264 -5.3471802e-05 -4.2846055e-05 0.00036919522 0.00017067461 1.6457063e-05 0.00025898084
2.51932e-06 8.8994515e-05 5.036545e-05 1.3228666e-05 1.0664354e-06 7.0267764e-05 7.968432e-05 9.187973e-05
4.695083e-06 1.8498862e-05 2.4851233e-06 3.289011e-05 8.3295876e-05 6.7358276e-05 2.0878591e-05 7.3593445e-05
00000000: e811 f1b7 4e31 ffb9 81c6 21b9 ea23 f7b8
00000010: a49e 8d37 0025 b0b9 387f c4b9 9f0f f2b9
00000020: a12d 6bb7 1ddc 4db9 3fe8 fdb6 bdc4 87b8
00000030: fb8c f6b9 9c7e 9bb9 5606 91b8 c106 b5b9
00000040: 39b7 e0b7 3ad0 3cb8 e81f 8f37 f76e 9bb8
00000050: 8669 5ab8 4b44 11b6 7936 1eb7 9b2a 81b8
00000060: 9705 c1b8 a764 1cb9 1812 d5b8 ea17 12b9
00000070: 5a07 2e36 c2e1 2ab9 ddf8 0b38 d692 4bb6
00000080: 74f6 f034 0164 dd38 f6e0 0138 8acb 3d37
00000090: af58 d3b7 3534 a738 5229 ab38 4fdf c438
000000a0: 8399 10b8 b8e0 8ab7 9425 5bb8 3c06 83b8
000000b0: 2b27 fa38 4885 6036 539a 4137 ce73 a538
000000c0: cd48 bc34 5af6 aa38 b66b e837 45bd 0c37
000000d0: c2c1 94b7 bc18 8238 53ff 8638 d246 9a38
000000e0: 9a5b c6b7 e7e7 e3b6 30b8 0db8 80bd 20b8
000000f0: ad6c bf38 8d68 1f37 bea3 3237 27e7 8038
00000100: f911 b537 5590 a039 baab ef37 a94e 6238
00000110: d7fa 0ab8 4431 4839 4c99 7839 53e5 8839
00000120: e3b5 e9b7 6d4a 0f39 eceb bcb7 534a afb7
00000130: 01c6 9339 c621 1939 fcaa 0238 f2ca 5639
00000140: 217d 17b8 652a e1b9 5aac 10b9 de31 fdb8
00000150: 4539 9db6 efde 98b9 a8e5 abb9 758e d8b9
00000160: 0f37 11b8 bbf5 4bb9 edcf d0b7 b088 bcb8
00000170: 3691 d5b9 6666 99b9 5992 83b8 1f7c 9fb9
00000180: 44e1 6837 e9f2 8c39 dd88 a837 85a5 9d38
00000190: a8b2 a5b8 6a4f 2a39 4b8a 1339 1d2b 6539
000001a0: 76cd c5b8 7716 8b38 c520 f2b8 5531 67b9
000001b0: 391f aa39 82e0 a6b7 40e4 3b34 afa5 2839
000001c0: 399e 83b7 9c8d 15b8 5b67 1237 077a 21b8
000001d0: 2ae0 00b8 89f6 c5b6 bc8f 28b7 75ec f7b7
000001e0: c1fa 60b8 3249 88b8 4147 53b8 b936 6cb8
000001f0: 56c3 10b7 d822 99b8 45e8 ce35 fd01 c1b6
00000200: 919c f1b7 2e09 85b8 8656 b537 1a45 81b8
00000210: c234 47b8 afc1 83b8 aa6e 58b8 9d90 f1b8
00000220: f072 b8b8 f7ae edb8 8dcb b3b8 23fb 1bb9
00000230: d2aa 70b7 eb76 38b9 f32b 1336 e112 1ab7
00000240: c46a bfb7 d43b eeb9 b472 16b9 8bb9 d1b8
00000250: df99 dc37 d7e7 a3b9 ce35 b8b9 d265 dfb9
00000260: 9fc1 6e35 eb38 49b9 8822 a8b6 5bd7 81b8
00000270: eb4f e6b9 30cb 92b9 fab2 83b8 b32e aab9
00000280: d7ed 3237 ea77 4939 89d5 2738 e1ea 7738
00000290: e25d 04b8 8b38 0639 2d47 fc38 36ce 3339
000002a0: bfda bbb7 e02b aa38 758c deb7 2ac4 0cb8
000002b0: 2ed7 4439 36af cc38 75b5 5537 8fe5 0839
000002c0: 88b0 05b8 0963 43b6 ab73 d138 79f7 49b8
000002d0: b9cc 5fb8 4280 3738 7b0f 9c37 dfc7 5d37
000002e0: 0384 a6b8 1ce8 32b9 0439 e3b8 b113 f7b8
000002f0: 3436 8738 90ba f6b8 19e3 a137 1c28 3138
00000300: 5a44 d3b7 81b0 4db8 aedd 40b6 30a6 58b8
00000310: ff31 3cb8 28a1 ddb6 0bb1 85b7 60c3 4db8
00000320: 048e 91b8 f797 00b9 17d1 b5b8 b9af dcb8
00000330: 879a 3bb7 1d5d 03b9 1d02 c036 01b5 84b7
00000340: 7e13 98b7 6b17 72b9 a7d0 a0b8 d935 87b8
00000350: a881 83b6 18c3 25b9 d45a 3bb9 6db7 6bb9
00000360: d4fb e2b7 6c63 02b9 0e32 06b8 d3ab 9cb8
00000370: 2d69 62b9 def9 38b9 d984 16b8 192c 2bb9
00000380: a723 d137 e3ae b739 ed9e d938 5367 da38
00000390: 01ad 4cb8 b84d 8d39 e1c7 8639 f84b b939
000003a0: 4661 32b8 3792 f038 e946 60b8 9ab5 33b8
000003b0: 8b90 c139 1ef7 3239 460d 8a37 d2c7 8739
000003c0: 9711 2936 91a2 ba38 7d3f 5338 b0f0 5d37
000003d0: 7122 8f35 b85c 9338 321c a738 8eaf c038
000003e0: 758a 9d36 012e 9b37 18c6 2636 7df3 0938
000003f0: 22af ae38 b342 8d38 6f24 af37 2e56 9a38

exp_avg_sq f4 [60, 16]
2.4166086e-06 1.9441242e-05 5.0288772e-06 3.7196346e-06 1.2561363e-06 1.25692895e-05 2.1293541e-05 1.4583032e-05
2.455792e-06 8.49438e-06 3.2061196e-06 5.591869e-06 2.1669228e-05 9.18836e-06 7.151487e-06 1.4370245e-05
2.914885e-06 9.058157e-06 3.77606e-06 4.6378436e-06 2.5454465e-06 4.8807647e-06 6.221052e-06 4.9756773e-06
9.418459e-06 2.0279696e-05 1.2702727e-05 5.3309564e-06 7.664969e-06 1.245381e-05 4.93633e-06 6.1853743e-06
7.8170325e-07 3.0385697e-06 8.271869e-08 1.2928831e-06 1.535802e-06 6.820191e-07 1.5798394e-06 1.2731615e-06
5.111455e-06 8.169731e-06 5.95733e-06 3.3052243e-06 6.1370423e-07 3.9649076e-06 2.4512258e-07 8.077221e-07
1.6332893e-07 5.7612556e-07 1.714935e-08 3.3598963e-07 2.4457893e-07 2.66246e-07 3.229029e-07 3.894712e-07
8.378069e-07 1.5026076e-06 9.582631e-07 5.12895e-07 2.451211e-07 9.517181e-07 2.5752744e-08 2.1173256e-07
8.4387267e-07 7.86405e-06 6.5499655e-08 1.5101673e-06 6.15312e-07 4.1528574e-06 7.818583e-06 5.2847e-06
1.445497e-06 5.406647e-06 2.358223e-06 2.6933558e-06 4.9338514e-06 5.868476e-06 4.9921925e-07 3.6462195e-06
5.388645e-07 1.0165641e-05 7.552556e-06 1.18084e-06 2.8652786e-07 1.1765376e-05 1.3481019e-05 9.858467e-06
4.413019e-07 2.6050534e-06 7.723114e-07 2.8419229e-06 1.5644699e-05 3.627129e-06 1.1465245e-05 1.1689914e-05
7.783388e-06 2.109554e-05 2.031415e-06 1.2449808e-05 5.015777e-06 1.0752335e-05 8.326953e-06 1.4765313e-05
1.7865977e-05 3.1012834e-05 1.8126811e-05 7.78989e-06 1.680157e-05 2.2866572e-05 4.7255088e-07 7.861691e-06
8.0169605e-07 1.894683e-06 3.622371e-08 1.4337377e-06 1.0282724e-06 3.9453013e-07 7.5690116e-07 1.0672892e-06
3.2563216e-06 4.3500236e-06 3.0872081e-06 1.4119454e-06 8.8904665e-07 2.489525e-06 2.893228e-08 6.842452e-07
2.4266428e-06 5.3303065e-06 1.3587264e-07 4.559422e-06 1.1762419e-06 2.1324547e-06 1.5196646e-06 4.215171e-06
2.7560068e-06 4.9299288e-06 1.303195e-06 1.4118027e-06 4.2933316e-06 5.3943945e-06 2.569542e-07 2.1815613e-06
2.029343e-06 1.1553717e-05 2.3697262e-06 3.591507e-06 7.386902e-07 7.685905e-06 1.0366149e-05 9.295875e-06
2.0990203e-06 7.5607622e-06 2.9555579e-06 3.604461e-06 1.04019255e-05 8.492272e-06 2.842904e-06 7.5162015e-06
7.1758177e-07 4.0780283e-06 1.11905315e-07 1.6611226e-06 3.6005014e-07 2.1323576e-06 2.6609198e-06 3.423472e-06
1.4023885e-06 4.4651574e-06 2.0512587e-06 1.8494039e-06 1.6464187e-06 4.7873136e-06 1.5431193e-07 1.8167079e-06
4.2758397e-06 1.5813543e-05 1.0717171e-05 7.662416e-06 2.2798529e-06 1.0757093e-05 1.1799625e-05 1.1623117e-05
7.883996e-06 2.0557442e-05 1.1244009e-05 5.9884405e-06 1.6958476e-05 1.6442516e-05 9.304168e-06 1.3606622e-05
2.3689436e-06 7.0193214e-06 3.7907983e-09 3.3297051e-06 1.9045424e-06 7.2134054e-07 3.4660318e-06 2.929804e-06
5.677288e-06 1.21959e-05 7.021306e-06 3.5888663e-06 2.7310273e-06 7.844001e-06 2.3305128e-07 2.794921e-06
1.2196534e-06 1.11955105e-05 5.1314296e-06 1.3008148e-06 1.797153e-06 6.711287e-06 1.2484276e-05 7.2172966e-06
3.41963e-06 5.9708377e-06 2.9710027e-06 4.979648e-06 1.1932382e-05 3.673952e-06 6.251579e-06 8.997156e-06
2.2402485e-06 1.2159484e-05 4.847212e-06 3.962666e-06 8.967182e-07 8.757324e-06 9.931077e-06 1.1783395e-05
3.4506884e-06 1.24059825e-05 5.4487164e-06 4.8996026e-06 8.427196e-06 1.235991e-05 1.1096057e-06 7.703114e-06
6.179787e-08 1.1240254e-06 9.935123e-07 1.2839732e-07 4.0566864e-08 1.6768146e-06 1.3762531e-06 9.624555e-07
7.057038e-08 1.4123364e-07 3.4135912e-08 2.975673e-07 1.7027902e-06 3.9752967e-07 1.4829736e-06 1.2835857e-06
00000000: 052d 2236 c015 a337 babd a836 d69e 7936
00000010: 8498 a835 b0e0 5237 889f b237 a5a9 7437
00000020: 2fce 2436 1683 0e37 b728 5736 caa1 bb36
00000030: 50c6 b537 b527 1a37 cef6 ef36 bb17 7137
00000040: 589d 4336 7df8 1737 3868 7d36 c69e 9b36
00000050: 70d2 2a36 73c5 a336 6ebe d036 bef4 a636
00000060: f903 1e37 511e aa37 cc1d 5537 91e0 b236
00000070: cb98 0037 b5f0 5037 c0a2 a536 f68b cf36
00000080: 3dd6 5135 3bea 4b36 15a3 b133 2087 ad35
00000090: c121 ce35 ff13 3735 de0a d435 7fe1 aa35
000000a0: 1083 ab36 ba10 0937 13e5 c736 52cf 5d36
000000b0: 6fbd 2435 4c0a 8536 6499 8334 3dd2 5835
000000c0: 845f 2f34 0ca7 1a35 d24f 9332 1062 b434
000000d0: ac4e 8334 92f0 8e34 705b ad34 8418 d134
000000e0: a7e5 6035 34ad c935 ab9d 8035 e0ad 0935
000000f0: 3099 8334 9279 7f35 e236 dd32 9a58 6334
00000100: 7d86 6235 d6ef 0337 d1a8 8c33 f4b0 ca35
00000110: eb2b 2535 c658 8b36 8f2c 0337 3a53 b136
00000120: e602 c235 be6a b536 f641 1e36 80bf 3436
00000130: 768d a536 d3e9 c436 1602 0635 93b1 7436
00000140: 7da6 1035 188d 2a37 f66b fd36 5a7d 9e35
00000150: 17d4 9934 e863 4537 892c 6237 cb65 2537
00000160: 12ec ec34 7ad2 2e36 d650 4f35 ddb7 3e36
00000170: bc3c 8337 9a69 7336 da5a 4037 cc1f 4437
00000180: 6695 0237 54f6 b037 7253 0836 85df 5037
00000190: 324d a836 ed64 3437 feb3 0b37 89b8 7737
000001a0: e5de 9537 c713 0238 080f 9837 53b1 0237
000001b0: 19f1 8c37 97d1 bf37 e6b2 fd34 b5e5 0337
000001c0: 2234 5735 d04c fe35 6494 1b33 da6e c035
000001d0: 2c03 8a35 cfcf d334 da2d 4b35 c73f 8f35
000001e0: 2e87 5a36 6bf6 9136 d52d 4f36 1382 bd35
000001f0: d2a6 6e35 b711 2736 c286 f832 f9ac 3735
00000200: 68d9 2236 fcda b236 63e4 1134 23fd 9836
00000210: 5ddf 9d35 4b1b 0f36 47f7 cb35 0b70 8d36
00000220: d6f3 3836 c46b a536 70e9 ae35 2c7d bd35
00000230: 700f 9036 7f01 b536 84f3 8934 f066 1236
00000240: d92f 0836 d6d6 4137 9607 1f36 9f05 7136
00000250: 674a 4635 b6f2 0037 45ea 2d37 7bf5 1b37
00000260: e5dc 0c36 74b2 fd36 1958 4636 2be4 7136
00000270: ee83 2e37 087a 0e37 b8c8 3e36 ae33 fc36
00000280: d89f 4035 ffd5 8836 9950 f033 bdf3 de35
00000290: ea4c c134 a019 0f36 4192 3236 cdbe 6536
000002a0: b439 bc35 69d3 9536 5ba8 0936 0939 f835
000002b0: 84fa dc35 b6a2 a036 f1b0 2534 9cd5 f335
000002c0: 2f79 8f36 53a7 8437 e6cd 3337 d38d 0037
000002d0: 93ff 1836 5d79 3437 01f7 4537 e800 4337
000002e0: 8145 0437 c572 ac37 a7a4 3c37 50f0 c836
000002f0: 0d42 8e37 09ee 8937 1919 1c37 ff47 6437
00000300: 24fa 1e36 8387 eb36 3740 8231 e673 5f36
00000310: 949f ff35 25a2 4135 f999 6836 a69d 4436
00000320: 887f be36 fe9c 4c37 8f98 eb36 41d8 7036
00000330: b146 3736 ba99 0337 a63c 7a34 6190 3b36
00000340: f9b2 a335 5ad4 3b37 a52e ac36 a897 ae35
00000350: b535 f135 8431 e136 8f73 5137 1b2c f236
00000360: cc7c 6536 1b59 c836 7061 4736 da16 a736
00000370: 3131 4837 048e 7636 a8c4 d136 7ef2 1637
00000380: 2d57 1636 9600 4c37 3ca5 a236 0bf7 8436
00000390: 01b6 7035 6cec 1237 a79d 2637 4cb1 4537
000003a0: 6092 6736 4a23 5037 1ed4 b636 4467 a436
000003b0: 8862 0d37 695d 4f37 c3ed 9435 9f3c 0137
000003c0: bdb5 8433 38dd 9635 d358 8535 96dd 0934
000003d0: bd3b 2e33 e90e e135 b2b7 b835 b82d 8135
000003e0: 7a8c 9733 02a6 1734 d59c 1233 57c1 9f34
000003f0: 6d8b e435 106c d534 960a c735 ab47 ac35

exp_avg f4 [60]
-0.00011652137 -5.4566626e-05 -2.1765106e-06 1.737255e-06 5.3645337e-05 -0.00011293124 -5.1518027e-06 -2.631156e-05
-4.8841346e-05 -0.00010567758 2.5024496e-05 -4.0704857e-05 -4.4069224e-05 -7.1681796e-05 6.314829e-05 2.414169e-05
-0.00010867728 -3.2352335e-05 -3.5324658e-05 4.198758e-05 2.3924882e-05 -4.580278e-05 2.1049791e-05 4.690131e-05
1.9574514e-05 -0.00011671983 1.3149962e-05 -1.2828661e-05 -5.5381684e-06 -6.575029e-05 -3.803904e-05 -7.2555886e-05
-0.00010747198 1.0779193e-05 -3.3109376e-05 -4.3568725e-05 -2.741028e-05 -0.000112844515 -1.844096e-05 -0.00010463569
-2.789841e-05 -4.847556e-05 -3.934978e-05 2.1330745e-05 -3.4227807e-05 -8.982957e-06 9.6815114e-05 -0.0001594334
4.33767e-05 -7.606412e-05 1.7910308e-05 -5.108059e-05 4.3348886e-05 3.838537e-05 -9.8014665e-05 -3.7587848e-05
3.3589466e-05 3.7510716e-05 -0.0001041778 -7.282058e-05
00000000: ef5c f4b8 78de 64b8 2b10 12b6 a12b e935
00000010: 3e01 6138 7fd5 ecb8 a6dd acb6 a5b7 dcb7
00000020: ffda 4cb8 389f ddb8 b2eb d137 82ba 2ab8
00000030: f8d6 38b8 df53 96b8 7b6e 8438 e283 ca37
00000040: ace9 e3b8 0eb2 07b8 9029 14b8 d21b 3038
00000050: 4bb2 c837 5c1c 40b8 1594 b037 e6b7 4438
00000060: f333 a437 7bc7 f4b8 a89e 5c37 ae3a 57b7
00000070: 81d4 b9b6 6be3 89b8 1c8c 1fb8 2529 98b8
00000080: 9462 e1b8 48d8 3437 ecde 0ab8 90bd 36b8
00000090: 21ef e5b7 f0a6 ecb8 a9b1 9ab7 dc6f dbb8
000000a0: 6107 eab7 3c52 4bb8 810b 25b8 6def b237
000000b0: d48f 0fb8 82b5 16b7 3809 cb38 942d 27b9
000000c0: 61ef 3538 9d84 9fb8 183e 9637 5e3f 56b8
000000d0: 83d1 3538 faff 2038 398d cdb8 a5a7 1db8
000000e0: 6ae2 0c38 d354 1d38 087a dab8 40b7 98b8

exp_avg_sq f4 [60]
3.3584267e-06 2.055718e-06 1.838022e-06 2.6465065e-07 8.8305455e-07 2.127354e-06 3.6538893e-06 8.0309485e-07
6.9567363e-07 1.462726e-06 4.1630994e-07 2.1743342e-06 1.6645654e-06 4.0508357e-06 1.5419762e-06 2.218093e-07
1.6866746e-06 8.01169e-06 7.4342133e-06 6.216856e-07 8.947306e-07 7.108019e-06 3.1504896e-06 1.7425227e-06
1.6706177e-06 2.4272751e-06 1.0278113e-06 9.29981e-07 5.6161167e-07 9.938557e-06 4.988152e-06 7.168282e-07
1.6294302e-06 1.6302043e-06 1.453494e-07 2.2741024e-07 2.3543814e-06 2.040269e-06 1.5729893e-06 8.7539723e-07
1.1834179e-06 1.3894585e-06 1.1041527e-06 2.5692557e-07 3.4219167e-07 1.3703346e-06 3.6937092e-06 4.4419867e-06
9.3058264e-07 1.123106e-06 2.3173033e-07 5.2853215e-06 1.5395276e-06 8.243827e-07 1.6966674e-06 4.3365034e-08
2.0891277e-06 1.1220458e-06 1.6512488e-06 8.8731537e-07
00000000: 5561 6136 f7f4 0936 f4b1 f635 4f15 8e34
00000010: 0c0b 6d35 aac3 0e36 5735 7536 4294 5735
00000020: 54be 3a35 e252 c435 3481 df34 c7ea 1136
00000030: 086a df35 6aec 8736 e6f5 ce35 7a2a 6e34
00000040: b361 e235 f269 0637 6873 f936 e9e1 2635
00000050: 6b2d 7035 6b81 ee36 006d 5336 a0e0 e935
00000060: fd39 e035 45e4 2236 54f3 8935 cfa3 7935
00000070: a9c1 1635 c7bd 2637 e65f a736 0f6c 4035
00000080: ccb2 da35 65cd da35 5711 1c34 0d2e 7434
00000090: f7ff 1d36 8eeb 0836 801f d335 d7fc 6a35
000000a0: eed5 9e35 6e7d ba35 6632 9435 95ef 8934
000000b0: 77b6 b734 57ec b735 71e1 7736 600c 9536
000000c0: 27cd 7935 a1bd 9635 8cd1 7834 9158 b136
000000d0: c4a1 ce35 264b 5d35 0cb9 e335 5c40 3a33
000000e0: f132 0c36 3399 9635 7aa0 dd35 d92f 6e35
